node {
  name: "fifo_queue"
  op: "FIFOQueueV2"
  device: "/job:learner/task:0/device:CPU:*"
  attr {
    key: "_output_shapes"
    value {
      list {
        shape {
        }
      }
    }
  }
  attr {
    key: "capacity"
    value {
      i: 1
    }
  }
  attr {
    key: "component_types"
    value {
      list {
        type: DT_STRING
        type: DT_FLOAT
        type: DT_FLOAT
        type: DT_FLOAT
        type: DT_FLOAT
        type: DT_INT32
        type: DT_BOOL
        type: DT_UINT8
        type: DT_STRING
        type: DT_INT32
        type: DT_FLOAT
        type: DT_FLOAT
      }
    }
  }
  attr {
    key: "container"
    value {
      s: ""
    }
  }
  attr {
    key: "shapes"
    value {
      list {
        shape {
        }
        shape {
          dim {
            size: 256
          }
        }
        shape {
          dim {
            size: 256
          }
        }
        shape {
          dim {
            size: 21
          }
        }
        shape {
          dim {
            size: 21
          }
        }
        shape {
          dim {
            size: 21
          }
        }
        shape {
          dim {
            size: 21
          }
        }
        shape {
          dim {
            size: 21
          }
          dim {
            size: 84
          }
          dim {
            size: 84
          }
          dim {
            size: 3
          }
        }
        shape {
          dim {
            size: 21
          }
        }
        shape {
          dim {
            size: 21
          }
        }
        shape {
          dim {
            size: 21
          }
          dim {
            size: 18
          }
        }
        shape {
          dim {
            size: 21
          }
        }
      }
    }
  }
  attr {
    key: "shared_name"
    value {
      s: "buffer"
    }
  }
}
node {
  name: "num_environment_frames/Initializer/zeros"
  op: "Const"
  attr {
    key: "_class"
    value {
      list {
        s: "loc:@num_environment_frames"
      }
    }
  }
  attr {
    key: "_output_shapes"
    value {
      list {
        shape {
        }
      }
    }
  }
  attr {
    key: "dtype"
    value {
      type: DT_INT64
    }
  }
  attr {
    key: "value"
    value {
      tensor {
        dtype: DT_INT64
        tensor_shape {
        }
        int64_val: 0
      }
    }
  }
}
node {
  name: "num_environment_frames"
  op: "VariableV2"
  device: "/job:learner/task:0/device:CPU:*"
  attr {
    key: "_class"
    value {
      list {
        s: "loc:@num_environment_frames"
      }
    }
  }
  attr {
    key: "_output_shapes"
    value {
      list {
        shape {
        }
      }
    }
  }
  attr {
    key: "container"
    value {
      s: ""
    }
  }
  attr {
    key: "dtype"
    value {
      type: DT_INT64
    }
  }
  attr {
    key: "shape"
    value {
      shape {
      }
    }
  }
  attr {
    key: "shared_name"
    value {
      s: ""
    }
  }
}
node {
  name: "num_environment_frames/Assign"
  op: "Assign"
  input: "num_environment_frames"
  input: "num_environment_frames/Initializer/zeros"
  device: "/job:learner/task:0/device:CPU:*"
  attr {
    key: "T"
    value {
      type: DT_INT64
    }
  }
  attr {
    key: "_class"
    value {
      list {
        s: "loc:@num_environment_frames"
      }
    }
  }
  attr {
    key: "_output_shapes"
    value {
      list {
        shape {
        }
      }
    }
  }
  attr {
    key: "use_locking"
    value {
      b: true
    }
  }
  attr {
    key: "validate_shape"
    value {
      b: true
    }
  }
}
node {
  name: "num_environment_frames/read"
  op: "Identity"
  input: "num_environment_frames"
  device: "/job:learner/task:0/device:CPU:*"
  attr {
    key: "T"
    value {
      type: DT_INT64
    }
  }
  attr {
    key: "_class"
    value {
      list {
        s: "loc:@num_environment_frames"
      }
    }
  }
  attr {
    key: "_output_shapes"
    value {
      list {
        shape {
        }
      }
    }
  }
}
node {
  name: "fifo_queue_DequeueMany/n"
  op: "Const"
  device: "/job:learner/task:0/device:CPU:*"
  attr {
    key: "_output_shapes"
    value {
      list {
        shape {
        }
      }
    }
  }
  attr {
    key: "dtype"
    value {
      type: DT_INT32
    }
  }
  attr {
    key: "value"
    value {
      tensor {
        dtype: DT_INT32
        tensor_shape {
        }
        int_val: 8
      }
    }
  }
}
node {
  name: "fifo_queue_DequeueMany"
  op: "QueueDequeueManyV2"
  input: "fifo_queue"
  input: "fifo_queue_DequeueMany/n"
  device: "/job:learner/task:0/device:CPU:*"
  attr {
    key: "_output_shapes"
    value {
      list {
        shape {
          dim {
            size: 8
          }
        }
        shape {
          dim {
            size: 8
          }
          dim {
            size: 256
          }
        }
        shape {
          dim {
            size: 8
          }
          dim {
            size: 256
          }
        }
        shape {
          dim {
            size: 8
          }
          dim {
            size: 21
          }
        }
        shape {
          dim {
            size: 8
          }
          dim {
            size: 21
          }
        }
        shape {
          dim {
            size: 8
          }
          dim {
            size: 21
          }
        }
        shape {
          dim {
            size: 8
          }
          dim {
            size: 21
          }
        }
        shape {
          dim {
            size: 8
          }
          dim {
            size: 21
          }
          dim {
            size: 84
          }
          dim {
            size: 84
          }
          dim {
            size: 3
          }
        }
        shape {
          dim {
            size: 8
          }
          dim {
            size: 21
          }
        }
        shape {
          dim {
            size: 8
          }
          dim {
            size: 21
          }
        }
        shape {
          dim {
            size: 8
          }
          dim {
            size: 21
          }
          dim {
            size: 18
          }
        }
        shape {
          dim {
            size: 8
          }
          dim {
            size: 21
          }
        }
      }
    }
  }
  attr {
    key: "component_types"
    value {
      list {
        type: DT_STRING
        type: DT_FLOAT
        type: DT_FLOAT
        type: DT_FLOAT
        type: DT_FLOAT
        type: DT_INT32
        type: DT_BOOL
        type: DT_UINT8
        type: DT_STRING
        type: DT_INT32
        type: DT_FLOAT
        type: DT_FLOAT
      }
    }
  }
  attr {
    key: "timeout_ms"
    value {
      i: -1
    }
  }
}
node {
  name: "transpose/perm"
  op: "Const"
  device: "/job:learner/task:0/device:CPU:*"
  attr {
    key: "_output_shapes"
    value {
      list {
        shape {
          dim {
            size: 2
          }
        }
      }
    }
  }
  attr {
    key: "dtype"
    value {
      type: DT_INT32
    }
  }
  attr {
    key: "value"
    value {
      tensor {
        dtype: DT_INT32
        tensor_shape {
          dim {
            size: 2
          }
        }
        tensor_content: "\001\000\000\000\000\000\000\000"
      }
    }
  }
}
node {
  name: "transpose"
  op: "Transpose"
  input: "fifo_queue_DequeueMany:3"
  input: "transpose/perm"
  device: "/job:learner/task:0/device:CPU:*"
  attr {
    key: "T"
    value {
      type: DT_FLOAT
    }
  }
  attr {
    key: "Tperm"
    value {
      type: DT_INT32
    }
  }
  attr {
    key: "_output_shapes"
    value {
      list {
        shape {
          dim {
            size: 21
          }
          dim {
            size: 8
          }
        }
      }
    }
  }
}
node {
  name: "transpose_1/perm"
  op: "Const"
  device: "/job:learner/task:0/device:CPU:*"
  attr {
    key: "_output_shapes"
    value {
      list {
        shape {
          dim {
            size: 2
          }
        }
      }
    }
  }
  attr {
    key: "dtype"
    value {
      type: DT_INT32
    }
  }
  attr {
    key: "value"
    value {
      tensor {
        dtype: DT_INT32
        tensor_shape {
          dim {
            size: 2
          }
        }
        tensor_content: "\001\000\000\000\000\000\000\000"
      }
    }
  }
}
node {
  name: "transpose_1"
  op: "Transpose"
  input: "fifo_queue_DequeueMany:4"
  input: "transpose_1/perm"
  device: "/job:learner/task:0/device:CPU:*"
  attr {
    key: "T"
    value {
      type: DT_FLOAT
    }
  }
  attr {
    key: "Tperm"
    value {
      type: DT_INT32
    }
  }
  attr {
    key: "_output_shapes"
    value {
      list {
        shape {
          dim {
            size: 21
          }
          dim {
            size: 8
          }
        }
      }
    }
  }
}
node {
  name: "transpose_2/perm"
  op: "Const"
  device: "/job:learner/task:0/device:CPU:*"
  attr {
    key: "_output_shapes"
    value {
      list {
        shape {
          dim {
            size: 2
          }
        }
      }
    }
  }
  attr {
    key: "dtype"
    value {
      type: DT_INT32
    }
  }
  attr {
    key: "value"
    value {
      tensor {
        dtype: DT_INT32
        tensor_shape {
          dim {
            size: 2
          }
        }
        tensor_content: "\001\000\000\000\000\000\000\000"
      }
    }
  }
}
node {
  name: "transpose_2"
  op: "Transpose"
  input: "fifo_queue_DequeueMany:5"
  input: "transpose_2/perm"
  device: "/job:learner/task:0/device:CPU:*"
  attr {
    key: "T"
    value {
      type: DT_INT32
    }
  }
  attr {
    key: "Tperm"
    value {
      type: DT_INT32
    }
  }
  attr {
    key: "_output_shapes"
    value {
      list {
        shape {
          dim {
            size: 21
          }
          dim {
            size: 8
          }
        }
      }
    }
  }
}
node {
  name: "transpose_3/perm"
  op: "Const"
  device: "/job:learner/task:0/device:CPU:*"
  attr {
    key: "_output_shapes"
    value {
      list {
        shape {
          dim {
            size: 2
          }
        }
      }
    }
  }
  attr {
    key: "dtype"
    value {
      type: DT_INT32
    }
  }
  attr {
    key: "value"
    value {
      tensor {
        dtype: DT_INT32
        tensor_shape {
          dim {
            size: 2
          }
        }
        tensor_content: "\001\000\000\000\000\000\000\000"
      }
    }
  }
}
node {
  name: "transpose_3"
  op: "Transpose"
  input: "fifo_queue_DequeueMany:6"
  input: "transpose_3/perm"
  device: "/job:learner/task:0/device:CPU:*"
  attr {
    key: "T"
    value {
      type: DT_BOOL
    }
  }
  attr {
    key: "Tperm"
    value {
      type: DT_INT32
    }
  }
  attr {
    key: "_output_shapes"
    value {
      list {
        shape {
          dim {
            size: 21
          }
          dim {
            size: 8
          }
        }
      }
    }
  }
}
node {
  name: "transpose_4/perm"
  op: "Const"
  device: "/job:learner/task:0/device:CPU:*"
  attr {
    key: "_output_shapes"
    value {
      list {
        shape {
          dim {
            size: 5
          }
        }
      }
    }
  }
  attr {
    key: "dtype"
    value {
      type: DT_INT32
    }
  }
  attr {
    key: "value"
    value {
      tensor {
        dtype: DT_INT32
        tensor_shape {
          dim {
            size: 5
          }
        }
        tensor_content: "\001\000\000\000\000\000\000\000\002\000\000\000\003\000\000\000\004\000\000\000"
      }
    }
  }
}
node {
  name: "transpose_4"
  op: "Transpose"
  input: "fifo_queue_DequeueMany:7"
  input: "transpose_4/perm"
  device: "/job:learner/task:0/device:CPU:*"
  attr {
    key: "T"
    value {
      type: DT_UINT8
    }
  }
  attr {
    key: "Tperm"
    value {
      type: DT_INT32
    }
  }
  attr {
    key: "_output_shapes"
    value {
      list {
        shape {
          dim {
            size: 21
          }
          dim {
            size: 8
          }
          dim {
            size: 84
          }
          dim {
            size: 84
          }
          dim {
            size: 3
          }
        }
      }
    }
  }
}
node {
  name: "transpose_5/perm"
  op: "Const"
  device: "/job:learner/task:0/device:CPU:*"
  attr {
    key: "_output_shapes"
    value {
      list {
        shape {
          dim {
            size: 2
          }
        }
      }
    }
  }
  attr {
    key: "dtype"
    value {
      type: DT_INT32
    }
  }
  attr {
    key: "value"
    value {
      tensor {
        dtype: DT_INT32
        tensor_shape {
          dim {
            size: 2
          }
        }
        tensor_content: "\001\000\000\000\000\000\000\000"
      }
    }
  }
}
node {
  name: "transpose_5"
  op: "Transpose"
  input: "fifo_queue_DequeueMany:8"
  input: "transpose_5/perm"
  device: "/job:learner/task:0/device:CPU:*"
  attr {
    key: "T"
    value {
      type: DT_STRING
    }
  }
  attr {
    key: "Tperm"
    value {
      type: DT_INT32
    }
  }
  attr {
    key: "_output_shapes"
    value {
      list {
        shape {
          dim {
            size: 21
          }
          dim {
            size: 8
          }
        }
      }
    }
  }
}
node {
  name: "transpose_6/perm"
  op: "Const"
  device: "/job:learner/task:0/device:CPU:*"
  attr {
    key: "_output_shapes"
    value {
      list {
        shape {
          dim {
            size: 2
          }
        }
      }
    }
  }
  attr {
    key: "dtype"
    value {
      type: DT_INT32
    }
  }
  attr {
    key: "value"
    value {
      tensor {
        dtype: DT_INT32
        tensor_shape {
          dim {
            size: 2
          }
        }
        tensor_content: "\001\000\000\000\000\000\000\000"
      }
    }
  }
}
node {
  name: "transpose_6"
  op: "Transpose"
  input: "fifo_queue_DequeueMany:9"
  input: "transpose_6/perm"
  device: "/job:learner/task:0/device:CPU:*"
  attr {
    key: "T"
    value {
      type: DT_INT32
    }
  }
  attr {
    key: "Tperm"
    value {
      type: DT_INT32
    }
  }
  attr {
    key: "_output_shapes"
    value {
      list {
        shape {
          dim {
            size: 21
          }
          dim {
            size: 8
          }
        }
      }
    }
  }
}
node {
  name: "transpose_7/perm"
  op: "Const"
  device: "/job:learner/task:0/device:CPU:*"
  attr {
    key: "_output_shapes"
    value {
      list {
        shape {
          dim {
            size: 3
          }
        }
      }
    }
  }
  attr {
    key: "dtype"
    value {
      type: DT_INT32
    }
  }
  attr {
    key: "value"
    value {
      tensor {
        dtype: DT_INT32
        tensor_shape {
          dim {
            size: 3
          }
        }
        tensor_content: "\001\000\000\000\000\000\000\000\002\000\000\000"
      }
    }
  }
}
node {
  name: "transpose_7"
  op: "Transpose"
  input: "fifo_queue_DequeueMany:10"
  input: "transpose_7/perm"
  device: "/job:learner/task:0/device:CPU:*"
  attr {
    key: "T"
    value {
      type: DT_FLOAT
    }
  }
  attr {
    key: "Tperm"
    value {
      type: DT_INT32
    }
  }
  attr {
    key: "_output_shapes"
    value {
      list {
        shape {
          dim {
            size: 21
          }
          dim {
            size: 8
          }
          dim {
            size: 18
          }
        }
      }
    }
  }
}
node {
  name: "transpose_8/perm"
  op: "Const"
  device: "/job:learner/task:0/device:CPU:*"
  attr {
    key: "_output_shapes"
    value {
      list {
        shape {
          dim {
            size: 2
          }
        }
      }
    }
  }
  attr {
    key: "dtype"
    value {
      type: DT_INT32
    }
  }
  attr {
    key: "value"
    value {
      tensor {
        dtype: DT_INT32
        tensor_shape {
          dim {
            size: 2
          }
        }
        tensor_content: "\001\000\000\000\000\000\000\000"
      }
    }
  }
}
node {
  name: "transpose_8"
  op: "Transpose"
  input: "fifo_queue_DequeueMany:11"
  input: "transpose_8/perm"
  device: "/job:learner/task:0/device:CPU:*"
  attr {
    key: "T"
    value {
      type: DT_FLOAT
    }
  }
  attr {
    key: "Tperm"
    value {
      type: DT_INT32
    }
  }
  attr {
    key: "_output_shapes"
    value {
      list {
        shape {
          dim {
            size: 21
          }
          dim {
            size: 8
          }
        }
      }
    }
  }
}
node {
  name: "StagingArea_root/NoOp"
  op: "NoOp"
  device: "/job:learner/task:0/device:GPU:*"
}
node {
  name: "StagingArea_put"
  op: "Stage"
  input: "fifo_queue_DequeueMany"
  input: "fifo_queue_DequeueMany:1"
  input: "fifo_queue_DequeueMany:2"
  input: "transpose"
  input: "transpose_1"
  input: "transpose_2"
  input: "transpose_3"
  input: "transpose_4"
  input: "transpose_5"
  input: "transpose_6"
  input: "transpose_7"
  input: "transpose_8"
  device: "/job:learner/task:0/device:GPU:*"
  attr {
    key: "_class"
    value {
      list {
        s: "loc:@StagingArea_root/NoOp"
      }
    }
  }
  attr {
    key: "capacity"
    value {
      i: 0
    }
  }
  attr {
    key: "container"
    value {
      s: ""
    }
  }
  attr {
    key: "dtypes"
    value {
      list {
        type: DT_STRING
        type: DT_FLOAT
        type: DT_FLOAT
        type: DT_FLOAT
        type: DT_FLOAT
        type: DT_INT32
        type: DT_BOOL
        type: DT_UINT8
        type: DT_STRING
        type: DT_INT32
        type: DT_FLOAT
        type: DT_FLOAT
      }
    }
  }
  attr {
    key: "memory_limit"
    value {
      i: 0
    }
  }
  attr {
    key: "shared_name"
    value {
      s: "StagingArea"
    }
  }
}
node {
  name: "StagingArea_get"
  op: "Unstage"
  device: "/job:learner/task:0/device:GPU:*"
  attr {
    key: "_class"
    value {
      list {
        s: "loc:@StagingArea_root/NoOp"
      }
    }
  }
  attr {
    key: "_output_shapes"
    value {
      list {
        shape {
          dim {
            size: 8
          }
        }
        shape {
          dim {
            size: 8
          }
          dim {
            size: 256
          }
        }
        shape {
          dim {
            size: 8
          }
          dim {
            size: 256
          }
        }
        shape {
          dim {
            size: 21
          }
          dim {
            size: 8
          }
        }
        shape {
          dim {
            size: 21
          }
          dim {
            size: 8
          }
        }
        shape {
          dim {
            size: 21
          }
          dim {
            size: 8
          }
        }
        shape {
          dim {
            size: 21
          }
          dim {
            size: 8
          }
        }
        shape {
          dim {
            size: 21
          }
          dim {
            size: 8
          }
          dim {
            size: 84
          }
          dim {
            size: 84
          }
          dim {
            size: 3
          }
        }
        shape {
          dim {
            size: 21
          }
          dim {
            size: 8
          }
        }
        shape {
          dim {
            size: 21
          }
          dim {
            size: 8
          }
        }
        shape {
          dim {
            size: 21
          }
          dim {
            size: 8
          }
          dim {
            size: 18
          }
        }
        shape {
          dim {
            size: 21
          }
          dim {
            size: 8
          }
        }
      }
    }
  }
  attr {
    key: "capacity"
    value {
      i: 0
    }
  }
  attr {
    key: "container"
    value {
      s: ""
    }
  }
  attr {
    key: "dtypes"
    value {
      list {
        type: DT_STRING
        type: DT_FLOAT
        type: DT_FLOAT
        type: DT_FLOAT
        type: DT_FLOAT
        type: DT_INT32
        type: DT_BOOL
        type: DT_UINT8
        type: DT_STRING
        type: DT_INT32
        type: DT_FLOAT
        type: DT_FLOAT
      }
    }
  }
  attr {
    key: "memory_limit"
    value {
      i: 0
    }
  }
  attr {
    key: "shared_name"
    value {
      s: "StagingArea"
    }
  }
}
node {
  name: "NoOp"
  op: "NoOp"
  device: "/job:learner/task:0/device:GPU:*"
}
node {
  name: "agent/unroll/batch_apply/Reshape/shape"
  op: "Const"
  device: "/job:learner/task:0/device:GPU:*"
  attr {
    key: "_output_shapes"
    value {
      list {
        shape {
          dim {
            size: 1
          }
        }
      }
    }
  }
  attr {
    key: "dtype"
    value {
      type: DT_INT32
    }
  }
  attr {
    key: "value"
    value {
      tensor {
        dtype: DT_INT32
        tensor_shape {
          dim {
            size: 1
          }
        }
        int_val: 168
      }
    }
  }
}
node {
  name: "agent/unroll/batch_apply/Reshape"
  op: "Reshape"
  input: "StagingArea_get:9"
  input: "agent/unroll/batch_apply/Reshape/shape"
  device: "/job:learner/task:0/device:GPU:*"
  attr {
    key: "T"
    value {
      type: DT_INT32
    }
  }
  attr {
    key: "Tshape"
    value {
      type: DT_INT32
    }
  }
  attr {
    key: "_output_shapes"
    value {
      list {
        shape {
          dim {
            size: 168
          }
        }
      }
    }
  }
}
node {
  name: "agent/unroll/batch_apply/Reshape_1/shape"
  op: "Const"
  device: "/job:learner/task:0/device:GPU:*"
  attr {
    key: "_output_shapes"
    value {
      list {
        shape {
          dim {
            size: 1
          }
        }
      }
    }
  }
  attr {
    key: "dtype"
    value {
      type: DT_INT32
    }
  }
  attr {
    key: "value"
    value {
      tensor {
        dtype: DT_INT32
        tensor_shape {
          dim {
            size: 1
          }
        }
        int_val: 168
      }
    }
  }
}
node {
  name: "agent/unroll/batch_apply/Reshape_1"
  op: "Reshape"
  input: "StagingArea_get:3"
  input: "agent/unroll/batch_apply/Reshape_1/shape"
  device: "/job:learner/task:0/device:GPU:*"
  attr {
    key: "T"
    value {
      type: DT_FLOAT
    }
  }
  attr {
    key: "Tshape"
    value {
      type: DT_INT32
    }
  }
  attr {
    key: "_output_shapes"
    value {
      list {
        shape {
          dim {
            size: 168
          }
        }
      }
    }
  }
}
node {
  name: "agent/unroll/batch_apply/Reshape_2/shape"
  op: "Const"
  device: "/job:learner/task:0/device:GPU:*"
  attr {
    key: "_output_shapes"
    value {
      list {
        shape {
          dim {
            size: 1
          }
        }
      }
    }
  }
  attr {
    key: "dtype"
    value {
      type: DT_INT32
    }
  }
  attr {
    key: "value"
    value {
      tensor {
        dtype: DT_INT32
        tensor_shape {
          dim {
            size: 1
          }
        }
        int_val: 168
      }
    }
  }
}
node {
  name: "agent/unroll/batch_apply/Reshape_2"
  op: "Reshape"
  input: "StagingArea_get:4"
  input: "agent/unroll/batch_apply/Reshape_2/shape"
  device: "/job:learner/task:0/device:GPU:*"
  attr {
    key: "T"
    value {
      type: DT_FLOAT
    }
  }
  attr {
    key: "Tshape"
    value {
      type: DT_INT32
    }
  }
  attr {
    key: "_output_shapes"
    value {
      list {
        shape {
          dim {
            size: 168
          }
        }
      }
    }
  }
}
node {
  name: "agent/unroll/batch_apply/Reshape_3/shape"
  op: "Const"
  device: "/job:learner/task:0/device:GPU:*"
  attr {
    key: "_output_shapes"
    value {
      list {
        shape {
          dim {
            size: 1
          }
        }
      }
    }
  }
  attr {
    key: "dtype"
    value {
      type: DT_INT32
    }
  }
  attr {
    key: "value"
    value {
      tensor {
        dtype: DT_INT32
        tensor_shape {
          dim {
            size: 1
          }
        }
        int_val: 168
      }
    }
  }
}
node {
  name: "agent/unroll/batch_apply/Reshape_3"
  op: "Reshape"
  input: "StagingArea_get:5"
  input: "agent/unroll/batch_apply/Reshape_3/shape"
  device: "/job:learner/task:0/device:GPU:*"
  attr {
    key: "T"
    value {
      type: DT_INT32
    }
  }
  attr {
    key: "Tshape"
    value {
      type: DT_INT32
    }
  }
  attr {
    key: "_output_shapes"
    value {
      list {
        shape {
          dim {
            size: 168
          }
        }
      }
    }
  }
}
node {
  name: "agent/unroll/batch_apply/Reshape_4/shape"
  op: "Const"
  device: "/job:learner/task:0/device:GPU:*"
  attr {
    key: "_output_shapes"
    value {
      list {
        shape {
          dim {
            size: 1
          }
        }
      }
    }
  }
  attr {
    key: "dtype"
    value {
      type: DT_INT32
    }
  }
  attr {
    key: "value"
    value {
      tensor {
        dtype: DT_INT32
        tensor_shape {
          dim {
            size: 1
          }
        }
        int_val: 168
      }
    }
  }
}
node {
  name: "agent/unroll/batch_apply/Reshape_4"
  op: "Reshape"
  input: "StagingArea_get:6"
  input: "agent/unroll/batch_apply/Reshape_4/shape"
  device: "/job:learner/task:0/device:GPU:*"
  attr {
    key: "T"
    value {
      type: DT_BOOL
    }
  }
  attr {
    key: "Tshape"
    value {
      type: DT_INT32
    }
  }
  attr {
    key: "_output_shapes"
    value {
      list {
        shape {
          dim {
            size: 168
          }
        }
      }
    }
  }
}
node {
  name: "agent/unroll/batch_apply/Reshape_5/shape"
  op: "Const"
  device: "/job:learner/task:0/device:GPU:*"
  attr {
    key: "_output_shapes"
    value {
      list {
        shape {
          dim {
            size: 4
          }
        }
      }
    }
  }
  attr {
    key: "dtype"
    value {
      type: DT_INT32
    }
  }
  attr {
    key: "value"
    value {
      tensor {
        dtype: DT_INT32
        tensor_shape {
          dim {
            size: 4
          }
        }
        tensor_content: "\250\000\000\000T\000\000\000T\000\000\000\003\000\000\000"
      }
    }
  }
}
node {
  name: "agent/unroll/batch_apply/Reshape_5"
  op: "Reshape"
  input: "StagingArea_get:7"
  input: "agent/unroll/batch_apply/Reshape_5/shape"
  device: "/job:learner/task:0/device:GPU:*"
  attr {
    key: "T"
    value {
      type: DT_UINT8
    }
  }
  attr {
    key: "Tshape"
    value {
      type: DT_INT32
    }
  }
  attr {
    key: "_output_shapes"
    value {
      list {
        shape {
          dim {
            size: 168
          }
          dim {
            size: 84
          }
          dim {
            size: 84
          }
          dim {
            size: 3
          }
        }
      }
    }
  }
}
node {
  name: "agent/unroll/batch_apply/Reshape_6/shape"
  op: "Const"
  device: "/job:learner/task:0/device:GPU:*"
  attr {
    key: "_output_shapes"
    value {
      list {
        shape {
          dim {
            size: 1
          }
        }
      }
    }
  }
  attr {
    key: "dtype"
    value {
      type: DT_INT32
    }
  }
  attr {
    key: "value"
    value {
      tensor {
        dtype: DT_INT32
        tensor_shape {
          dim {
            size: 1
          }
        }
        int_val: 168
      }
    }
  }
}
node {
  name: "agent/unroll/batch_apply/Reshape_6"
  op: "Reshape"
  input: "StagingArea_get:8"
  input: "agent/unroll/batch_apply/Reshape_6/shape"
  device: "/job:learner/task:0/device:GPU:*"
  attr {
    key: "T"
    value {
      type: DT_STRING
    }
  }
  attr {
    key: "Tshape"
    value {
      type: DT_INT32
    }
  }
  attr {
    key: "_output_shapes"
    value {
      list {
        shape {
          dim {
            size: 168
          }
        }
      }
    }
  }
}
node {
  name: "agent/unroll/batch_apply/ToFloat"
  op: "Cast"
  input: "agent/unroll/batch_apply/Reshape_5"
  device: "/job:learner/task:0/device:GPU:*"
  attr {
    key: "DstT"
    value {
      type: DT_FLOAT
    }
  }
  attr {
    key: "SrcT"
    value {
      type: DT_UINT8
    }
  }
  attr {
    key: "Truncate"
    value {
      b: false
    }
  }
  attr {
    key: "_output_shapes"
    value {
      list {
        shape {
          dim {
            size: 168
          }
          dim {
            size: 84
          }
          dim {
            size: 84
          }
          dim {
            size: 3
          }
        }
      }
    }
  }
}
node {
  name: "agent/unroll/batch_apply/truediv/y"
  op: "Const"
  device: "/job:learner/task:0/device:GPU:*"
  attr {
    key: "_output_shapes"
    value {
      list {
        shape {
        }
      }
    }
  }
  attr {
    key: "dtype"
    value {
      type: DT_FLOAT
    }
  }
  attr {
    key: "value"
    value {
      tensor {
        dtype: DT_FLOAT
        tensor_shape {
        }
        float_val: 255.0
      }
    }
  }
}
node {
  name: "agent/unroll/batch_apply/truediv"
  op: "RealDiv"
  input: "agent/unroll/batch_apply/ToFloat"
  input: "agent/unroll/batch_apply/truediv/y"
  device: "/job:learner/task:0/device:GPU:*"
  attr {
    key: "T"
    value {
      type: DT_FLOAT
    }
  }
  attr {
    key: "_output_shapes"
    value {
      list {
        shape {
          dim {
            size: 168
          }
          dim {
            size: 84
          }
          dim {
            size: 84
          }
          dim {
            size: 3
          }
        }
      }
    }
  }
}
node {
  name: "agent/batch_apply/convnet/conv_2d/w/Initializer/truncated_normal/shape"
  op: "Const"
  attr {
    key: "_class"
    value {
      list {
        s: "loc:@agent/batch_apply/convnet/conv_2d/w"
      }
    }
  }
  attr {
    key: "_output_shapes"
    value {
      list {
        shape {
          dim {
            size: 4
          }
        }
      }
    }
  }
  attr {
    key: "dtype"
    value {
      type: DT_INT32
    }
  }
  attr {
    key: "value"
    value {
      tensor {
        dtype: DT_INT32
        tensor_shape {
          dim {
            size: 4
          }
        }
        tensor_content: "\003\000\000\000\003\000\000\000\003\000\000\000\020\000\000\000"
      }
    }
  }
}
node {
  name: "agent/batch_apply/convnet/conv_2d/w/Initializer/truncated_normal/mean"
  op: "Const"
  attr {
    key: "_class"
    value {
      list {
        s: "loc:@agent/batch_apply/convnet/conv_2d/w"
      }
    }
  }
  attr {
    key: "_output_shapes"
    value {
      list {
        shape {
        }
      }
    }
  }
  attr {
    key: "dtype"
    value {
      type: DT_FLOAT
    }
  }
  attr {
    key: "value"
    value {
      tensor {
        dtype: DT_FLOAT
        tensor_shape {
        }
        float_val: 0.0
      }
    }
  }
}
node {
  name: "agent/batch_apply/convnet/conv_2d/w/Initializer/truncated_normal/stddev"
  op: "Const"
  attr {
    key: "_class"
    value {
      list {
        s: "loc:@agent/batch_apply/convnet/conv_2d/w"
      }
    }
  }
  attr {
    key: "_output_shapes"
    value {
      list {
        shape {
        }
      }
    }
  }
  attr {
    key: "dtype"
    value {
      type: DT_FLOAT
    }
  }
  attr {
    key: "value"
    value {
      tensor {
        dtype: DT_FLOAT
        tensor_shape {
        }
        float_val: 0.192450091243
      }
    }
  }
}
node {
  name: "agent/batch_apply/convnet/conv_2d/w/Initializer/truncated_normal/TruncatedNormal"
  op: "TruncatedNormal"
  input: "agent/batch_apply/convnet/conv_2d/w/Initializer/truncated_normal/shape"
  attr {
    key: "T"
    value {
      type: DT_INT32
    }
  }
  attr {
    key: "_class"
    value {
      list {
        s: "loc:@agent/batch_apply/convnet/conv_2d/w"
      }
    }
  }
  attr {
    key: "_output_shapes"
    value {
      list {
        shape {
          dim {
            size: 3
          }
          dim {
            size: 3
          }
          dim {
            size: 3
          }
          dim {
            size: 16
          }
        }
      }
    }
  }
  attr {
    key: "dtype"
    value {
      type: DT_FLOAT
    }
  }
  attr {
    key: "seed"
    value {
      i: 1
    }
  }
  attr {
    key: "seed2"
    value {
      i: 49
    }
  }
}
node {
  name: "agent/batch_apply/convnet/conv_2d/w/Initializer/truncated_normal/mul"
  op: "Mul"
  input: "agent/batch_apply/convnet/conv_2d/w/Initializer/truncated_normal/TruncatedNormal"
  input: "agent/batch_apply/convnet/conv_2d/w/Initializer/truncated_normal/stddev"
  attr {
    key: "T"
    value {
      type: DT_FLOAT
    }
  }
  attr {
    key: "_class"
    value {
      list {
        s: "loc:@agent/batch_apply/convnet/conv_2d/w"
      }
    }
  }
  attr {
    key: "_output_shapes"
    value {
      list {
        shape {
          dim {
            size: 3
          }
          dim {
            size: 3
          }
          dim {
            size: 3
          }
          dim {
            size: 16
          }
        }
      }
    }
  }
}
node {
  name: "agent/batch_apply/convnet/conv_2d/w/Initializer/truncated_normal"
  op: "Add"
  input: "agent/batch_apply/convnet/conv_2d/w/Initializer/truncated_normal/mul"
  input: "agent/batch_apply/convnet/conv_2d/w/Initializer/truncated_normal/mean"
  attr {
    key: "T"
    value {
      type: DT_FLOAT
    }
  }
  attr {
    key: "_class"
    value {
      list {
        s: "loc:@agent/batch_apply/convnet/conv_2d/w"
      }
    }
  }
  attr {
    key: "_output_shapes"
    value {
      list {
        shape {
          dim {
            size: 3
          }
          dim {
            size: 3
          }
          dim {
            size: 3
          }
          dim {
            size: 16
          }
        }
      }
    }
  }
}
node {
  name: "agent/batch_apply/convnet/conv_2d/w"
  op: "VariableV2"
  device: "/job:learner/task:0/device:CPU:*"
  attr {
    key: "_class"
    value {
      list {
        s: "loc:@agent/batch_apply/convnet/conv_2d/w"
      }
    }
  }
  attr {
    key: "_output_shapes"
    value {
      list {
        shape {
          dim {
            size: 3
          }
          dim {
            size: 3
          }
          dim {
            size: 3
          }
          dim {
            size: 16
          }
        }
      }
    }
  }
  attr {
    key: "container"
    value {
      s: ""
    }
  }
  attr {
    key: "dtype"
    value {
      type: DT_FLOAT
    }
  }
  attr {
    key: "shape"
    value {
      shape {
        dim {
          size: 3
        }
        dim {
          size: 3
        }
        dim {
          size: 3
        }
        dim {
          size: 16
        }
      }
    }
  }
  attr {
    key: "shared_name"
    value {
      s: ""
    }
  }
}
node {
  name: "agent/batch_apply/convnet/conv_2d/w/Assign"
  op: "Assign"
  input: "agent/batch_apply/convnet/conv_2d/w"
  input: "agent/batch_apply/convnet/conv_2d/w/Initializer/truncated_normal"
  device: "/job:learner/task:0/device:CPU:*"
  attr {
    key: "T"
    value {
      type: DT_FLOAT
    }
  }
  attr {
    key: "_class"
    value {
      list {
        s: "loc:@agent/batch_apply/convnet/conv_2d/w"
      }
    }
  }
  attr {
    key: "_output_shapes"
    value {
      list {
        shape {
          dim {
            size: 3
          }
          dim {
            size: 3
          }
          dim {
            size: 3
          }
          dim {
            size: 16
          }
        }
      }
    }
  }
  attr {
    key: "use_locking"
    value {
      b: true
    }
  }
  attr {
    key: "validate_shape"
    value {
      b: true
    }
  }
}
node {
  name: "agent/batch_apply/convnet/conv_2d/w/read"
  op: "Identity"
  input: "agent/batch_apply/convnet/conv_2d/w"
  device: "/job:learner/task:0/device:CPU:*"
  attr {
    key: "T"
    value {
      type: DT_FLOAT
    }
  }
  attr {
    key: "_class"
    value {
      list {
        s: "loc:@agent/batch_apply/convnet/conv_2d/w"
      }
    }
  }
  attr {
    key: "_output_shapes"
    value {
      list {
        shape {
          dim {
            size: 3
          }
          dim {
            size: 3
          }
          dim {
            size: 3
          }
          dim {
            size: 16
          }
        }
      }
    }
  }
}
node {
  name: "agent/unroll/batch_apply/convnet/conv_2d/convolution/dilation_rate"
  op: "Const"
  device: "/job:learner/task:0/device:GPU:*"
  attr {
    key: "_output_shapes"
    value {
      list {
        shape {
          dim {
            size: 2
          }
        }
      }
    }
  }
  attr {
    key: "dtype"
    value {
      type: DT_INT32
    }
  }
  attr {
    key: "value"
    value {
      tensor {
        dtype: DT_INT32
        tensor_shape {
          dim {
            size: 2
          }
        }
        tensor_content: "\001\000\000\000\001\000\000\000"
      }
    }
  }
}
node {
  name: "agent/unroll/batch_apply/convnet/conv_2d/convolution"
  op: "Conv2D"
  input: "agent/unroll/batch_apply/truediv"
  input: "agent/batch_apply/convnet/conv_2d/w/read"
  device: "/job:learner/task:0/device:GPU:*"
  attr {
    key: "T"
    value {
      type: DT_FLOAT
    }
  }
  attr {
    key: "_output_shapes"
    value {
      list {
        shape {
          dim {
            size: 168
          }
          dim {
            size: 84
          }
          dim {
            size: 84
          }
          dim {
            size: 16
          }
        }
      }
    }
  }
  attr {
    key: "data_format"
    value {
      s: "NHWC"
    }
  }
  attr {
    key: "dilations"
    value {
      list {
        i: 1
        i: 1
        i: 1
        i: 1
      }
    }
  }
  attr {
    key: "padding"
    value {
      s: "SAME"
    }
  }
  attr {
    key: "strides"
    value {
      list {
        i: 1
        i: 1
        i: 1
        i: 1
      }
    }
  }
  attr {
    key: "use_cudnn_on_gpu"
    value {
      b: true
    }
  }
}
node {
  name: "agent/batch_apply/convnet/conv_2d/b/Initializer/zeros"
  op: "Const"
  attr {
    key: "_class"
    value {
      list {
        s: "loc:@agent/batch_apply/convnet/conv_2d/b"
      }
    }
  }
  attr {
    key: "_output_shapes"
    value {
      list {
        shape {
          dim {
            size: 16
          }
        }
      }
    }
  }
  attr {
    key: "dtype"
    value {
      type: DT_FLOAT
    }
  }
  attr {
    key: "value"
    value {
      tensor {
        dtype: DT_FLOAT
        tensor_shape {
          dim {
            size: 16
          }
        }
        float_val: 0.0
      }
    }
  }
}
node {
  name: "agent/batch_apply/convnet/conv_2d/b"
  op: "VariableV2"
  device: "/job:learner/task:0/device:CPU:*"
  attr {
    key: "_class"
    value {
      list {
        s: "loc:@agent/batch_apply/convnet/conv_2d/b"
      }
    }
  }
  attr {
    key: "_output_shapes"
    value {
      list {
        shape {
          dim {
            size: 16
          }
        }
      }
    }
  }
  attr {
    key: "container"
    value {
      s: ""
    }
  }
  attr {
    key: "dtype"
    value {
      type: DT_FLOAT
    }
  }
  attr {
    key: "shape"
    value {
      shape {
        dim {
          size: 16
        }
      }
    }
  }
  attr {
    key: "shared_name"
    value {
      s: ""
    }
  }
}
node {
  name: "agent/batch_apply/convnet/conv_2d/b/Assign"
  op: "Assign"
  input: "agent/batch_apply/convnet/conv_2d/b"
  input: "agent/batch_apply/convnet/conv_2d/b/Initializer/zeros"
  device: "/job:learner/task:0/device:CPU:*"
  attr {
    key: "T"
    value {
      type: DT_FLOAT
    }
  }
  attr {
    key: "_class"
    value {
      list {
        s: "loc:@agent/batch_apply/convnet/conv_2d/b"
      }
    }
  }
  attr {
    key: "_output_shapes"
    value {
      list {
        shape {
          dim {
            size: 16
          }
        }
      }
    }
  }
  attr {
    key: "use_locking"
    value {
      b: true
    }
  }
  attr {
    key: "validate_shape"
    value {
      b: true
    }
  }
}
node {
  name: "agent/batch_apply/convnet/conv_2d/b/read"
  op: "Identity"
  input: "agent/batch_apply/convnet/conv_2d/b"
  device: "/job:learner/task:0/device:CPU:*"
  attr {
    key: "T"
    value {
      type: DT_FLOAT
    }
  }
  attr {
    key: "_class"
    value {
      list {
        s: "loc:@agent/batch_apply/convnet/conv_2d/b"
      }
    }
  }
  attr {
    key: "_output_shapes"
    value {
      list {
        shape {
          dim {
            size: 16
          }
        }
      }
    }
  }
}
node {
  name: "agent/unroll/batch_apply/convnet/conv_2d/BiasAdd"
  op: "BiasAdd"
  input: "agent/unroll/batch_apply/convnet/conv_2d/convolution"
  input: "agent/batch_apply/convnet/conv_2d/b/read"
  device: "/job:learner/task:0/device:GPU:*"
  attr {
    key: "T"
    value {
      type: DT_FLOAT
    }
  }
  attr {
    key: "_output_shapes"
    value {
      list {
        shape {
          dim {
            size: 168
          }
          dim {
            size: 84
          }
          dim {
            size: 84
          }
          dim {
            size: 16
          }
        }
      }
    }
  }
  attr {
    key: "data_format"
    value {
      s: "NHWC"
    }
  }
}
node {
  name: "agent/unroll/batch_apply/convnet/max_pool/dilation_rate"
  op: "Const"
  device: "/job:learner/task:0/device:GPU:*"
  attr {
    key: "_output_shapes"
    value {
      list {
        shape {
          dim {
            size: 2
          }
        }
      }
    }
  }
  attr {
    key: "dtype"
    value {
      type: DT_INT32
    }
  }
  attr {
    key: "value"
    value {
      tensor {
        dtype: DT_INT32
        tensor_shape {
          dim {
            size: 2
          }
        }
        tensor_content: "\001\000\000\000\001\000\000\000"
      }
    }
  }
}
node {
  name: "agent/unroll/batch_apply/convnet/max_pool"
  op: "MaxPool"
  input: "agent/unroll/batch_apply/convnet/conv_2d/BiasAdd"
  device: "/job:learner/task:0/device:GPU:*"
  attr {
    key: "T"
    value {
      type: DT_FLOAT
    }
  }
  attr {
    key: "_output_shapes"
    value {
      list {
        shape {
          dim {
            size: 168
          }
          dim {
            size: 42
          }
          dim {
            size: 42
          }
          dim {
            size: 16
          }
        }
      }
    }
  }
  attr {
    key: "data_format"
    value {
      s: "NHWC"
    }
  }
  attr {
    key: "ksize"
    value {
      list {
        i: 1
        i: 3
        i: 3
        i: 1
      }
    }
  }
  attr {
    key: "padding"
    value {
      s: "SAME"
    }
  }
  attr {
    key: "strides"
    value {
      list {
        i: 1
        i: 2
        i: 2
        i: 1
      }
    }
  }
}
node {
  name: "agent/batch_apply/convnet/conv_2d_1/w/Initializer/truncated_normal/shape"
  op: "Const"
  attr {
    key: "_class"
    value {
      list {
        s: "loc:@agent/batch_apply/convnet/conv_2d_1/w"
      }
    }
  }
  attr {
    key: "_output_shapes"
    value {
      list {
        shape {
          dim {
            size: 4
          }
        }
      }
    }
  }
  attr {
    key: "dtype"
    value {
      type: DT_INT32
    }
  }
  attr {
    key: "value"
    value {
      tensor {
        dtype: DT_INT32
        tensor_shape {
          dim {
            size: 4
          }
        }
        tensor_content: "\003\000\000\000\003\000\000\000\020\000\000\000 \000\000\000"
      }
    }
  }
}
node {
  name: "agent/batch_apply/convnet/conv_2d_1/w/Initializer/truncated_normal/mean"
  op: "Const"
  attr {
    key: "_class"
    value {
      list {
        s: "loc:@agent/batch_apply/convnet/conv_2d_1/w"
      }
    }
  }
  attr {
    key: "_output_shapes"
    value {
      list {
        shape {
        }
      }
    }
  }
  attr {
    key: "dtype"
    value {
      type: DT_FLOAT
    }
  }
  attr {
    key: "value"
    value {
      tensor {
        dtype: DT_FLOAT
        tensor_shape {
        }
        float_val: 0.0
      }
    }
  }
}
node {
  name: "agent/batch_apply/convnet/conv_2d_1/w/Initializer/truncated_normal/stddev"
  op: "Const"
  attr {
    key: "_class"
    value {
      list {
        s: "loc:@agent/batch_apply/convnet/conv_2d_1/w"
      }
    }
  }
  attr {
    key: "_output_shapes"
    value {
      list {
        shape {
        }
      }
    }
  }
  attr {
    key: "dtype"
    value {
      type: DT_FLOAT
    }
  }
  attr {
    key: "value"
    value {
      tensor {
        dtype: DT_FLOAT
        tensor_shape {
        }
        float_val: 0.0833333358169
      }
    }
  }
}
node {
  name: "agent/batch_apply/convnet/conv_2d_1/w/Initializer/truncated_normal/TruncatedNormal"
  op: "TruncatedNormal"
  input: "agent/batch_apply/convnet/conv_2d_1/w/Initializer/truncated_normal/shape"
  attr {
    key: "T"
    value {
      type: DT_INT32
    }
  }
  attr {
    key: "_class"
    value {
      list {
        s: "loc:@agent/batch_apply/convnet/conv_2d_1/w"
      }
    }
  }
  attr {
    key: "_output_shapes"
    value {
      list {
        shape {
          dim {
            size: 3
          }
          dim {
            size: 3
          }
          dim {
            size: 16
          }
          dim {
            size: 32
          }
        }
      }
    }
  }
  attr {
    key: "dtype"
    value {
      type: DT_FLOAT
    }
  }
  attr {
    key: "seed"
    value {
      i: 1
    }
  }
  attr {
    key: "seed2"
    value {
      i: 67
    }
  }
}
node {
  name: "agent/batch_apply/convnet/conv_2d_1/w/Initializer/truncated_normal/mul"
  op: "Mul"
  input: "agent/batch_apply/convnet/conv_2d_1/w/Initializer/truncated_normal/TruncatedNormal"
  input: "agent/batch_apply/convnet/conv_2d_1/w/Initializer/truncated_normal/stddev"
  attr {
    key: "T"
    value {
      type: DT_FLOAT
    }
  }
  attr {
    key: "_class"
    value {
      list {
        s: "loc:@agent/batch_apply/convnet/conv_2d_1/w"
      }
    }
  }
  attr {
    key: "_output_shapes"
    value {
      list {
        shape {
          dim {
            size: 3
          }
          dim {
            size: 3
          }
          dim {
            size: 16
          }
          dim {
            size: 32
          }
        }
      }
    }
  }
}
node {
  name: "agent/batch_apply/convnet/conv_2d_1/w/Initializer/truncated_normal"
  op: "Add"
  input: "agent/batch_apply/convnet/conv_2d_1/w/Initializer/truncated_normal/mul"
  input: "agent/batch_apply/convnet/conv_2d_1/w/Initializer/truncated_normal/mean"
  attr {
    key: "T"
    value {
      type: DT_FLOAT
    }
  }
  attr {
    key: "_class"
    value {
      list {
        s: "loc:@agent/batch_apply/convnet/conv_2d_1/w"
      }
    }
  }
  attr {
    key: "_output_shapes"
    value {
      list {
        shape {
          dim {
            size: 3
          }
          dim {
            size: 3
          }
          dim {
            size: 16
          }
          dim {
            size: 32
          }
        }
      }
    }
  }
}
node {
  name: "agent/batch_apply/convnet/conv_2d_1/w"
  op: "VariableV2"
  device: "/job:learner/task:0/device:CPU:*"
  attr {
    key: "_class"
    value {
      list {
        s: "loc:@agent/batch_apply/convnet/conv_2d_1/w"
      }
    }
  }
  attr {
    key: "_output_shapes"
    value {
      list {
        shape {
          dim {
            size: 3
          }
          dim {
            size: 3
          }
          dim {
            size: 16
          }
          dim {
            size: 32
          }
        }
      }
    }
  }
  attr {
    key: "container"
    value {
      s: ""
    }
  }
  attr {
    key: "dtype"
    value {
      type: DT_FLOAT
    }
  }
  attr {
    key: "shape"
    value {
      shape {
        dim {
          size: 3
        }
        dim {
          size: 3
        }
        dim {
          size: 16
        }
        dim {
          size: 32
        }
      }
    }
  }
  attr {
    key: "shared_name"
    value {
      s: ""
    }
  }
}
node {
  name: "agent/batch_apply/convnet/conv_2d_1/w/Assign"
  op: "Assign"
  input: "agent/batch_apply/convnet/conv_2d_1/w"
  input: "agent/batch_apply/convnet/conv_2d_1/w/Initializer/truncated_normal"
  device: "/job:learner/task:0/device:CPU:*"
  attr {
    key: "T"
    value {
      type: DT_FLOAT
    }
  }
  attr {
    key: "_class"
    value {
      list {
        s: "loc:@agent/batch_apply/convnet/conv_2d_1/w"
      }
    }
  }
  attr {
    key: "_output_shapes"
    value {
      list {
        shape {
          dim {
            size: 3
          }
          dim {
            size: 3
          }
          dim {
            size: 16
          }
          dim {
            size: 32
          }
        }
      }
    }
  }
  attr {
    key: "use_locking"
    value {
      b: true
    }
  }
  attr {
    key: "validate_shape"
    value {
      b: true
    }
  }
}
node {
  name: "agent/batch_apply/convnet/conv_2d_1/w/read"
  op: "Identity"
  input: "agent/batch_apply/convnet/conv_2d_1/w"
  device: "/job:learner/task:0/device:CPU:*"
  attr {
    key: "T"
    value {
      type: DT_FLOAT
    }
  }
  attr {
    key: "_class"
    value {
      list {
        s: "loc:@agent/batch_apply/convnet/conv_2d_1/w"
      }
    }
  }
  attr {
    key: "_output_shapes"
    value {
      list {
        shape {
          dim {
            size: 3
          }
          dim {
            size: 3
          }
          dim {
            size: 16
          }
          dim {
            size: 32
          }
        }
      }
    }
  }
}
node {
  name: "agent/unroll/batch_apply/convnet/conv_2d_1/convolution/dilation_rate"
  op: "Const"
  device: "/job:learner/task:0/device:GPU:*"
  attr {
    key: "_output_shapes"
    value {
      list {
        shape {
          dim {
            size: 2
          }
        }
      }
    }
  }
  attr {
    key: "dtype"
    value {
      type: DT_INT32
    }
  }
  attr {
    key: "value"
    value {
      tensor {
        dtype: DT_INT32
        tensor_shape {
          dim {
            size: 2
          }
        }
        tensor_content: "\001\000\000\000\001\000\000\000"
      }
    }
  }
}
node {
  name: "agent/unroll/batch_apply/convnet/conv_2d_1/convolution"
  op: "Conv2D"
  input: "agent/unroll/batch_apply/convnet/max_pool"
  input: "agent/batch_apply/convnet/conv_2d_1/w/read"
  device: "/job:learner/task:0/device:GPU:*"
  attr {
    key: "T"
    value {
      type: DT_FLOAT
    }
  }
  attr {
    key: "_output_shapes"
    value {
      list {
        shape {
          dim {
            size: 168
          }
          dim {
            size: 42
          }
          dim {
            size: 42
          }
          dim {
            size: 32
          }
        }
      }
    }
  }
  attr {
    key: "data_format"
    value {
      s: "NHWC"
    }
  }
  attr {
    key: "dilations"
    value {
      list {
        i: 1
        i: 1
        i: 1
        i: 1
      }
    }
  }
  attr {
    key: "padding"
    value {
      s: "SAME"
    }
  }
  attr {
    key: "strides"
    value {
      list {
        i: 1
        i: 1
        i: 1
        i: 1
      }
    }
  }
  attr {
    key: "use_cudnn_on_gpu"
    value {
      b: true
    }
  }
}
node {
  name: "agent/batch_apply/convnet/conv_2d_1/b/Initializer/zeros"
  op: "Const"
  attr {
    key: "_class"
    value {
      list {
        s: "loc:@agent/batch_apply/convnet/conv_2d_1/b"
      }
    }
  }
  attr {
    key: "_output_shapes"
    value {
      list {
        shape {
          dim {
            size: 32
          }
        }
      }
    }
  }
  attr {
    key: "dtype"
    value {
      type: DT_FLOAT
    }
  }
  attr {
    key: "value"
    value {
      tensor {
        dtype: DT_FLOAT
        tensor_shape {
          dim {
            size: 32
          }
        }
        float_val: 0.0
      }
    }
  }
}
node {
  name: "agent/batch_apply/convnet/conv_2d_1/b"
  op: "VariableV2"
  device: "/job:learner/task:0/device:CPU:*"
  attr {
    key: "_class"
    value {
      list {
        s: "loc:@agent/batch_apply/convnet/conv_2d_1/b"
      }
    }
  }
  attr {
    key: "_output_shapes"
    value {
      list {
        shape {
          dim {
            size: 32
          }
        }
      }
    }
  }
  attr {
    key: "container"
    value {
      s: ""
    }
  }
  attr {
    key: "dtype"
    value {
      type: DT_FLOAT
    }
  }
  attr {
    key: "shape"
    value {
      shape {
        dim {
          size: 32
        }
      }
    }
  }
  attr {
    key: "shared_name"
    value {
      s: ""
    }
  }
}
node {
  name: "agent/batch_apply/convnet/conv_2d_1/b/Assign"
  op: "Assign"
  input: "agent/batch_apply/convnet/conv_2d_1/b"
  input: "agent/batch_apply/convnet/conv_2d_1/b/Initializer/zeros"
  device: "/job:learner/task:0/device:CPU:*"
  attr {
    key: "T"
    value {
      type: DT_FLOAT
    }
  }
  attr {
    key: "_class"
    value {
      list {
        s: "loc:@agent/batch_apply/convnet/conv_2d_1/b"
      }
    }
  }
  attr {
    key: "_output_shapes"
    value {
      list {
        shape {
          dim {
            size: 32
          }
        }
      }
    }
  }
  attr {
    key: "use_locking"
    value {
      b: true
    }
  }
  attr {
    key: "validate_shape"
    value {
      b: true
    }
  }
}
node {
  name: "agent/batch_apply/convnet/conv_2d_1/b/read"
  op: "Identity"
  input: "agent/batch_apply/convnet/conv_2d_1/b"
  device: "/job:learner/task:0/device:CPU:*"
  attr {
    key: "T"
    value {
      type: DT_FLOAT
    }
  }
  attr {
    key: "_class"
    value {
      list {
        s: "loc:@agent/batch_apply/convnet/conv_2d_1/b"
      }
    }
  }
  attr {
    key: "_output_shapes"
    value {
      list {
        shape {
          dim {
            size: 32
          }
        }
      }
    }
  }
}
node {
  name: "agent/unroll/batch_apply/convnet/conv_2d_1/BiasAdd"
  op: "BiasAdd"
  input: "agent/unroll/batch_apply/convnet/conv_2d_1/convolution"
  input: "agent/batch_apply/convnet/conv_2d_1/b/read"
  device: "/job:learner/task:0/device:GPU:*"
  attr {
    key: "T"
    value {
      type: DT_FLOAT
    }
  }
  attr {
    key: "_output_shapes"
    value {
      list {
        shape {
          dim {
            size: 168
          }
          dim {
            size: 42
          }
          dim {
            size: 42
          }
          dim {
            size: 32
          }
        }
      }
    }
  }
  attr {
    key: "data_format"
    value {
      s: "NHWC"
    }
  }
}
node {
  name: "agent/unroll/batch_apply/convnet/max_pool_1/dilation_rate"
  op: "Const"
  device: "/job:learner/task:0/device:GPU:*"
  attr {
    key: "_output_shapes"
    value {
      list {
        shape {
          dim {
            size: 2
          }
        }
      }
    }
  }
  attr {
    key: "dtype"
    value {
      type: DT_INT32
    }
  }
  attr {
    key: "value"
    value {
      tensor {
        dtype: DT_INT32
        tensor_shape {
          dim {
            size: 2
          }
        }
        tensor_content: "\001\000\000\000\001\000\000\000"
      }
    }
  }
}
node {
  name: "agent/unroll/batch_apply/convnet/max_pool_1"
  op: "MaxPool"
  input: "agent/unroll/batch_apply/convnet/conv_2d_1/BiasAdd"
  device: "/job:learner/task:0/device:GPU:*"
  attr {
    key: "T"
    value {
      type: DT_FLOAT
    }
  }
  attr {
    key: "_output_shapes"
    value {
      list {
        shape {
          dim {
            size: 168
          }
          dim {
            size: 21
          }
          dim {
            size: 21
          }
          dim {
            size: 32
          }
        }
      }
    }
  }
  attr {
    key: "data_format"
    value {
      s: "NHWC"
    }
  }
  attr {
    key: "ksize"
    value {
      list {
        i: 1
        i: 3
        i: 3
        i: 1
      }
    }
  }
  attr {
    key: "padding"
    value {
      s: "SAME"
    }
  }
  attr {
    key: "strides"
    value {
      list {
        i: 1
        i: 2
        i: 2
        i: 1
      }
    }
  }
}
node {
  name: "agent/batch_apply/convnet/conv_2d_2/w/Initializer/truncated_normal/shape"
  op: "Const"
  attr {
    key: "_class"
    value {
      list {
        s: "loc:@agent/batch_apply/convnet/conv_2d_2/w"
      }
    }
  }
  attr {
    key: "_output_shapes"
    value {
      list {
        shape {
          dim {
            size: 4
          }
        }
      }
    }
  }
  attr {
    key: "dtype"
    value {
      type: DT_INT32
    }
  }
  attr {
    key: "value"
    value {
      tensor {
        dtype: DT_INT32
        tensor_shape {
          dim {
            size: 4
          }
        }
        tensor_content: "\003\000\000\000\003\000\000\000 \000\000\000 \000\000\000"
      }
    }
  }
}
node {
  name: "agent/batch_apply/convnet/conv_2d_2/w/Initializer/truncated_normal/mean"
  op: "Const"
  attr {
    key: "_class"
    value {
      list {
        s: "loc:@agent/batch_apply/convnet/conv_2d_2/w"
      }
    }
  }
  attr {
    key: "_output_shapes"
    value {
      list {
        shape {
        }
      }
    }
  }
  attr {
    key: "dtype"
    value {
      type: DT_FLOAT
    }
  }
  attr {
    key: "value"
    value {
      tensor {
        dtype: DT_FLOAT
        tensor_shape {
        }
        float_val: 0.0
      }
    }
  }
}
node {
  name: "agent/batch_apply/convnet/conv_2d_2/w/Initializer/truncated_normal/stddev"
  op: "Const"
  attr {
    key: "_class"
    value {
      list {
        s: "loc:@agent/batch_apply/convnet/conv_2d_2/w"
      }
    }
  }
  attr {
    key: "_output_shapes"
    value {
      list {
        shape {
        }
      }
    }
  }
  attr {
    key: "dtype"
    value {
      type: DT_FLOAT
    }
  }
  attr {
    key: "value"
    value {
      tensor {
        dtype: DT_FLOAT
        tensor_shape {
        }
        float_val: 0.0589255653322
      }
    }
  }
}
node {
  name: "agent/batch_apply/convnet/conv_2d_2/w/Initializer/truncated_normal/TruncatedNormal"
  op: "TruncatedNormal"
  input: "agent/batch_apply/convnet/conv_2d_2/w/Initializer/truncated_normal/shape"
  attr {
    key: "T"
    value {
      type: DT_INT32
    }
  }
  attr {
    key: "_class"
    value {
      list {
        s: "loc:@agent/batch_apply/convnet/conv_2d_2/w"
      }
    }
  }
  attr {
    key: "_output_shapes"
    value {
      list {
        shape {
          dim {
            size: 3
          }
          dim {
            size: 3
          }
          dim {
            size: 32
          }
          dim {
            size: 32
          }
        }
      }
    }
  }
  attr {
    key: "dtype"
    value {
      type: DT_FLOAT
    }
  }
  attr {
    key: "seed"
    value {
      i: 1
    }
  }
  attr {
    key: "seed2"
    value {
      i: 85
    }
  }
}
node {
  name: "agent/batch_apply/convnet/conv_2d_2/w/Initializer/truncated_normal/mul"
  op: "Mul"
  input: "agent/batch_apply/convnet/conv_2d_2/w/Initializer/truncated_normal/TruncatedNormal"
  input: "agent/batch_apply/convnet/conv_2d_2/w/Initializer/truncated_normal/stddev"
  attr {
    key: "T"
    value {
      type: DT_FLOAT
    }
  }
  attr {
    key: "_class"
    value {
      list {
        s: "loc:@agent/batch_apply/convnet/conv_2d_2/w"
      }
    }
  }
  attr {
    key: "_output_shapes"
    value {
      list {
        shape {
          dim {
            size: 3
          }
          dim {
            size: 3
          }
          dim {
            size: 32
          }
          dim {
            size: 32
          }
        }
      }
    }
  }
}
node {
  name: "agent/batch_apply/convnet/conv_2d_2/w/Initializer/truncated_normal"
  op: "Add"
  input: "agent/batch_apply/convnet/conv_2d_2/w/Initializer/truncated_normal/mul"
  input: "agent/batch_apply/convnet/conv_2d_2/w/Initializer/truncated_normal/mean"
  attr {
    key: "T"
    value {
      type: DT_FLOAT
    }
  }
  attr {
    key: "_class"
    value {
      list {
        s: "loc:@agent/batch_apply/convnet/conv_2d_2/w"
      }
    }
  }
  attr {
    key: "_output_shapes"
    value {
      list {
        shape {
          dim {
            size: 3
          }
          dim {
            size: 3
          }
          dim {
            size: 32
          }
          dim {
            size: 32
          }
        }
      }
    }
  }
}
node {
  name: "agent/batch_apply/convnet/conv_2d_2/w"
  op: "VariableV2"
  device: "/job:learner/task:0/device:CPU:*"
  attr {
    key: "_class"
    value {
      list {
        s: "loc:@agent/batch_apply/convnet/conv_2d_2/w"
      }
    }
  }
  attr {
    key: "_output_shapes"
    value {
      list {
        shape {
          dim {
            size: 3
          }
          dim {
            size: 3
          }
          dim {
            size: 32
          }
          dim {
            size: 32
          }
        }
      }
    }
  }
  attr {
    key: "container"
    value {
      s: ""
    }
  }
  attr {
    key: "dtype"
    value {
      type: DT_FLOAT
    }
  }
  attr {
    key: "shape"
    value {
      shape {
        dim {
          size: 3
        }
        dim {
          size: 3
        }
        dim {
          size: 32
        }
        dim {
          size: 32
        }
      }
    }
  }
  attr {
    key: "shared_name"
    value {
      s: ""
    }
  }
}
node {
  name: "agent/batch_apply/convnet/conv_2d_2/w/Assign"
  op: "Assign"
  input: "agent/batch_apply/convnet/conv_2d_2/w"
  input: "agent/batch_apply/convnet/conv_2d_2/w/Initializer/truncated_normal"
  device: "/job:learner/task:0/device:CPU:*"
  attr {
    key: "T"
    value {
      type: DT_FLOAT
    }
  }
  attr {
    key: "_class"
    value {
      list {
        s: "loc:@agent/batch_apply/convnet/conv_2d_2/w"
      }
    }
  }
  attr {
    key: "_output_shapes"
    value {
      list {
        shape {
          dim {
            size: 3
          }
          dim {
            size: 3
          }
          dim {
            size: 32
          }
          dim {
            size: 32
          }
        }
      }
    }
  }
  attr {
    key: "use_locking"
    value {
      b: true
    }
  }
  attr {
    key: "validate_shape"
    value {
      b: true
    }
  }
}
node {
  name: "agent/batch_apply/convnet/conv_2d_2/w/read"
  op: "Identity"
  input: "agent/batch_apply/convnet/conv_2d_2/w"
  device: "/job:learner/task:0/device:CPU:*"
  attr {
    key: "T"
    value {
      type: DT_FLOAT
    }
  }
  attr {
    key: "_class"
    value {
      list {
        s: "loc:@agent/batch_apply/convnet/conv_2d_2/w"
      }
    }
  }
  attr {
    key: "_output_shapes"
    value {
      list {
        shape {
          dim {
            size: 3
          }
          dim {
            size: 3
          }
          dim {
            size: 32
          }
          dim {
            size: 32
          }
        }
      }
    }
  }
}
node {
  name: "agent/unroll/batch_apply/convnet/conv_2d_2/convolution/dilation_rate"
  op: "Const"
  device: "/job:learner/task:0/device:GPU:*"
  attr {
    key: "_output_shapes"
    value {
      list {
        shape {
          dim {
            size: 2
          }
        }
      }
    }
  }
  attr {
    key: "dtype"
    value {
      type: DT_INT32
    }
  }
  attr {
    key: "value"
    value {
      tensor {
        dtype: DT_INT32
        tensor_shape {
          dim {
            size: 2
          }
        }
        tensor_content: "\001\000\000\000\001\000\000\000"
      }
    }
  }
}
node {
  name: "agent/unroll/batch_apply/convnet/conv_2d_2/convolution"
  op: "Conv2D"
  input: "agent/unroll/batch_apply/convnet/max_pool_1"
  input: "agent/batch_apply/convnet/conv_2d_2/w/read"
  device: "/job:learner/task:0/device:GPU:*"
  attr {
    key: "T"
    value {
      type: DT_FLOAT
    }
  }
  attr {
    key: "_output_shapes"
    value {
      list {
        shape {
          dim {
            size: 168
          }
          dim {
            size: 21
          }
          dim {
            size: 21
          }
          dim {
            size: 32
          }
        }
      }
    }
  }
  attr {
    key: "data_format"
    value {
      s: "NHWC"
    }
  }
  attr {
    key: "dilations"
    value {
      list {
        i: 1
        i: 1
        i: 1
        i: 1
      }
    }
  }
  attr {
    key: "padding"
    value {
      s: "SAME"
    }
  }
  attr {
    key: "strides"
    value {
      list {
        i: 1
        i: 1
        i: 1
        i: 1
      }
    }
  }
  attr {
    key: "use_cudnn_on_gpu"
    value {
      b: true
    }
  }
}
node {
  name: "agent/batch_apply/convnet/conv_2d_2/b/Initializer/zeros"
  op: "Const"
  attr {
    key: "_class"
    value {
      list {
        s: "loc:@agent/batch_apply/convnet/conv_2d_2/b"
      }
    }
  }
  attr {
    key: "_output_shapes"
    value {
      list {
        shape {
          dim {
            size: 32
          }
        }
      }
    }
  }
  attr {
    key: "dtype"
    value {
      type: DT_FLOAT
    }
  }
  attr {
    key: "value"
    value {
      tensor {
        dtype: DT_FLOAT
        tensor_shape {
          dim {
            size: 32
          }
        }
        float_val: 0.0
      }
    }
  }
}
node {
  name: "agent/batch_apply/convnet/conv_2d_2/b"
  op: "VariableV2"
  device: "/job:learner/task:0/device:CPU:*"
  attr {
    key: "_class"
    value {
      list {
        s: "loc:@agent/batch_apply/convnet/conv_2d_2/b"
      }
    }
  }
  attr {
    key: "_output_shapes"
    value {
      list {
        shape {
          dim {
            size: 32
          }
        }
      }
    }
  }
  attr {
    key: "container"
    value {
      s: ""
    }
  }
  attr {
    key: "dtype"
    value {
      type: DT_FLOAT
    }
  }
  attr {
    key: "shape"
    value {
      shape {
        dim {
          size: 32
        }
      }
    }
  }
  attr {
    key: "shared_name"
    value {
      s: ""
    }
  }
}
node {
  name: "agent/batch_apply/convnet/conv_2d_2/b/Assign"
  op: "Assign"
  input: "agent/batch_apply/convnet/conv_2d_2/b"
  input: "agent/batch_apply/convnet/conv_2d_2/b/Initializer/zeros"
  device: "/job:learner/task:0/device:CPU:*"
  attr {
    key: "T"
    value {
      type: DT_FLOAT
    }
  }
  attr {
    key: "_class"
    value {
      list {
        s: "loc:@agent/batch_apply/convnet/conv_2d_2/b"
      }
    }
  }
  attr {
    key: "_output_shapes"
    value {
      list {
        shape {
          dim {
            size: 32
          }
        }
      }
    }
  }
  attr {
    key: "use_locking"
    value {
      b: true
    }
  }
  attr {
    key: "validate_shape"
    value {
      b: true
    }
  }
}
node {
  name: "agent/batch_apply/convnet/conv_2d_2/b/read"
  op: "Identity"
  input: "agent/batch_apply/convnet/conv_2d_2/b"
  device: "/job:learner/task:0/device:CPU:*"
  attr {
    key: "T"
    value {
      type: DT_FLOAT
    }
  }
  attr {
    key: "_class"
    value {
      list {
        s: "loc:@agent/batch_apply/convnet/conv_2d_2/b"
      }
    }
  }
  attr {
    key: "_output_shapes"
    value {
      list {
        shape {
          dim {
            size: 32
          }
        }
      }
    }
  }
}
node {
  name: "agent/unroll/batch_apply/convnet/conv_2d_2/BiasAdd"
  op: "BiasAdd"
  input: "agent/unroll/batch_apply/convnet/conv_2d_2/convolution"
  input: "agent/batch_apply/convnet/conv_2d_2/b/read"
  device: "/job:learner/task:0/device:GPU:*"
  attr {
    key: "T"
    value {
      type: DT_FLOAT
    }
  }
  attr {
    key: "_output_shapes"
    value {
      list {
        shape {
          dim {
            size: 168
          }
          dim {
            size: 21
          }
          dim {
            size: 21
          }
          dim {
            size: 32
          }
        }
      }
    }
  }
  attr {
    key: "data_format"
    value {
      s: "NHWC"
    }
  }
}
node {
  name: "agent/unroll/batch_apply/convnet/max_pool_2/dilation_rate"
  op: "Const"
  device: "/job:learner/task:0/device:GPU:*"
  attr {
    key: "_output_shapes"
    value {
      list {
        shape {
          dim {
            size: 2
          }
        }
      }
    }
  }
  attr {
    key: "dtype"
    value {
      type: DT_INT32
    }
  }
  attr {
    key: "value"
    value {
      tensor {
        dtype: DT_INT32
        tensor_shape {
          dim {
            size: 2
          }
        }
        tensor_content: "\001\000\000\000\001\000\000\000"
      }
    }
  }
}
node {
  name: "agent/unroll/batch_apply/convnet/max_pool_2"
  op: "MaxPool"
  input: "agent/unroll/batch_apply/convnet/conv_2d_2/BiasAdd"
  device: "/job:learner/task:0/device:GPU:*"
  attr {
    key: "T"
    value {
      type: DT_FLOAT
    }
  }
  attr {
    key: "_output_shapes"
    value {
      list {
        shape {
          dim {
            size: 168
          }
          dim {
            size: 11
          }
          dim {
            size: 11
          }
          dim {
            size: 32
          }
        }
      }
    }
  }
  attr {
    key: "data_format"
    value {
      s: "NHWC"
    }
  }
  attr {
    key: "ksize"
    value {
      list {
        i: 1
        i: 3
        i: 3
        i: 1
      }
    }
  }
  attr {
    key: "padding"
    value {
      s: "SAME"
    }
  }
  attr {
    key: "strides"
    value {
      list {
        i: 1
        i: 2
        i: 2
        i: 1
      }
    }
  }
}
node {
  name: "agent/unroll/batch_apply/Relu"
  op: "Relu"
  input: "agent/unroll/batch_apply/convnet/max_pool_2"
  device: "/job:learner/task:0/device:GPU:*"
  attr {
    key: "T"
    value {
      type: DT_FLOAT
    }
  }
  attr {
    key: "_output_shapes"
    value {
      list {
        shape {
          dim {
            size: 168
          }
          dim {
            size: 11
          }
          dim {
            size: 11
          }
          dim {
            size: 32
          }
        }
      }
    }
  }
}
node {
  name: "agent/unroll/batch_apply/batch_flatten/Shape"
  op: "Const"
  device: "/job:learner/task:0/device:GPU:*"
  attr {
    key: "_output_shapes"
    value {
      list {
        shape {
          dim {
            size: 4
          }
        }
      }
    }
  }
  attr {
    key: "dtype"
    value {
      type: DT_INT32
    }
  }
  attr {
    key: "value"
    value {
      tensor {
        dtype: DT_INT32
        tensor_shape {
          dim {
            size: 4
          }
        }
        tensor_content: "\250\000\000\000\013\000\000\000\013\000\000\000 \000\000\000"
      }
    }
  }
}
node {
  name: "agent/unroll/batch_apply/batch_flatten/strided_slice/stack"
  op: "Const"
  device: "/job:learner/task:0/device:GPU:*"
  attr {
    key: "_output_shapes"
    value {
      list {
        shape {
          dim {
            size: 1
          }
        }
      }
    }
  }
  attr {
    key: "dtype"
    value {
      type: DT_INT32
    }
  }
  attr {
    key: "value"
    value {
      tensor {
        dtype: DT_INT32
        tensor_shape {
          dim {
            size: 1
          }
        }
        int_val: 0
      }
    }
  }
}
node {
  name: "agent/unroll/batch_apply/batch_flatten/strided_slice/stack_1"
  op: "Const"
  device: "/job:learner/task:0/device:GPU:*"
  attr {
    key: "_output_shapes"
    value {
      list {
        shape {
          dim {
            size: 1
          }
        }
      }
    }
  }
  attr {
    key: "dtype"
    value {
      type: DT_INT32
    }
  }
  attr {
    key: "value"
    value {
      tensor {
        dtype: DT_INT32
        tensor_shape {
          dim {
            size: 1
          }
        }
        int_val: 1
      }
    }
  }
}
node {
  name: "agent/unroll/batch_apply/batch_flatten/strided_slice/stack_2"
  op: "Const"
  device: "/job:learner/task:0/device:GPU:*"
  attr {
    key: "_output_shapes"
    value {
      list {
        shape {
          dim {
            size: 1
          }
        }
      }
    }
  }
  attr {
    key: "dtype"
    value {
      type: DT_INT32
    }
  }
  attr {
    key: "value"
    value {
      tensor {
        dtype: DT_INT32
        tensor_shape {
          dim {
            size: 1
          }
        }
        int_val: 1
      }
    }
  }
}
node {
  name: "agent/unroll/batch_apply/batch_flatten/strided_slice"
  op: "StridedSlice"
  input: "agent/unroll/batch_apply/batch_flatten/Shape"
  input: "agent/unroll/batch_apply/batch_flatten/strided_slice/stack"
  input: "agent/unroll/batch_apply/batch_flatten/strided_slice/stack_1"
  input: "agent/unroll/batch_apply/batch_flatten/strided_slice/stack_2"
  device: "/job:learner/task:0/device:GPU:*"
  attr {
    key: "Index"
    value {
      type: DT_INT32
    }
  }
  attr {
    key: "T"
    value {
      type: DT_INT32
    }
  }
  attr {
    key: "_output_shapes"
    value {
      list {
        shape {
          dim {
            size: 1
          }
        }
      }
    }
  }
  attr {
    key: "begin_mask"
    value {
      i: 1
    }
  }
  attr {
    key: "ellipsis_mask"
    value {
      i: 0
    }
  }
  attr {
    key: "end_mask"
    value {
      i: 0
    }
  }
  attr {
    key: "new_axis_mask"
    value {
      i: 0
    }
  }
  attr {
    key: "shrink_axis_mask"
    value {
      i: 0
    }
  }
}
node {
  name: "agent/unroll/batch_apply/batch_flatten/concat/values_1"
  op: "Const"
  device: "/job:learner/task:0/device:GPU:*"
  attr {
    key: "_output_shapes"
    value {
      list {
        shape {
          dim {
            size: 1
          }
        }
      }
    }
  }
  attr {
    key: "dtype"
    value {
      type: DT_INT32
    }
  }
  attr {
    key: "value"
    value {
      tensor {
        dtype: DT_INT32
        tensor_shape {
          dim {
            size: 1
          }
        }
        int_val: 3872
      }
    }
  }
}
node {
  name: "agent/unroll/batch_apply/batch_flatten/concat/axis"
  op: "Const"
  device: "/job:learner/task:0/device:GPU:*"
  attr {
    key: "_output_shapes"
    value {
      list {
        shape {
        }
      }
    }
  }
  attr {
    key: "dtype"
    value {
      type: DT_INT32
    }
  }
  attr {
    key: "value"
    value {
      tensor {
        dtype: DT_INT32
        tensor_shape {
        }
        int_val: 0
      }
    }
  }
}
node {
  name: "agent/unroll/batch_apply/batch_flatten/concat"
  op: "ConcatV2"
  input: "agent/unroll/batch_apply/batch_flatten/strided_slice"
  input: "agent/unroll/batch_apply/batch_flatten/concat/values_1"
  input: "agent/unroll/batch_apply/batch_flatten/concat/axis"
  device: "/job:learner/task:0/device:GPU:*"
  attr {
    key: "N"
    value {
      i: 2
    }
  }
  attr {
    key: "T"
    value {
      type: DT_INT32
    }
  }
  attr {
    key: "Tidx"
    value {
      type: DT_INT32
    }
  }
  attr {
    key: "_output_shapes"
    value {
      list {
        shape {
          dim {
            size: 2
          }
        }
      }
    }
  }
}
node {
  name: "agent/unroll/batch_apply/batch_flatten/Reshape"
  op: "Reshape"
  input: "agent/unroll/batch_apply/Relu"
  input: "agent/unroll/batch_apply/batch_flatten/concat"
  device: "/job:learner/task:0/device:GPU:*"
  attr {
    key: "T"
    value {
      type: DT_FLOAT
    }
  }
  attr {
    key: "Tshape"
    value {
      type: DT_INT32
    }
  }
  attr {
    key: "_output_shapes"
    value {
      list {
        shape {
          dim {
            size: 168
          }
          dim {
            size: 3872
          }
        }
      }
    }
  }
}
node {
  name: "agent/batch_apply/linear/w/Initializer/truncated_normal/shape"
  op: "Const"
  attr {
    key: "_class"
    value {
      list {
        s: "loc:@agent/batch_apply/linear/w"
      }
    }
  }
  attr {
    key: "_output_shapes"
    value {
      list {
        shape {
          dim {
            size: 2
          }
        }
      }
    }
  }
  attr {
    key: "dtype"
    value {
      type: DT_INT32
    }
  }
  attr {
    key: "value"
    value {
      tensor {
        dtype: DT_INT32
        tensor_shape {
          dim {
            size: 2
          }
        }
        tensor_content: " \017\000\000\000\001\000\000"
      }
    }
  }
}
node {
  name: "agent/batch_apply/linear/w/Initializer/truncated_normal/mean"
  op: "Const"
  attr {
    key: "_class"
    value {
      list {
        s: "loc:@agent/batch_apply/linear/w"
      }
    }
  }
  attr {
    key: "_output_shapes"
    value {
      list {
        shape {
        }
      }
    }
  }
  attr {
    key: "dtype"
    value {
      type: DT_FLOAT
    }
  }
  attr {
    key: "value"
    value {
      tensor {
        dtype: DT_FLOAT
        tensor_shape {
        }
        float_val: 0.0
      }
    }
  }
}
node {
  name: "agent/batch_apply/linear/w/Initializer/truncated_normal/stddev"
  op: "Const"
  attr {
    key: "_class"
    value {
      list {
        s: "loc:@agent/batch_apply/linear/w"
      }
    }
  }
  attr {
    key: "_output_shapes"
    value {
      list {
        shape {
        }
      }
    }
  }
  attr {
    key: "dtype"
    value {
      type: DT_FLOAT
    }
  }
  attr {
    key: "value"
    value {
      tensor {
        dtype: DT_FLOAT
        tensor_shape {
        }
        float_val: 0.0160706080496
      }
    }
  }
}
node {
  name: "agent/batch_apply/linear/w/Initializer/truncated_normal/TruncatedNormal"
  op: "TruncatedNormal"
  input: "agent/batch_apply/linear/w/Initializer/truncated_normal/shape"
  attr {
    key: "T"
    value {
      type: DT_INT32
    }
  }
  attr {
    key: "_class"
    value {
      list {
        s: "loc:@agent/batch_apply/linear/w"
      }
    }
  }
  attr {
    key: "_output_shapes"
    value {
      list {
        shape {
          dim {
            size: 3872
          }
          dim {
            size: 256
          }
        }
      }
    }
  }
  attr {
    key: "dtype"
    value {
      type: DT_FLOAT
    }
  }
  attr {
    key: "seed"
    value {
      i: 1
    }
  }
  attr {
    key: "seed2"
    value {
      i: 113
    }
  }
}
node {
  name: "agent/batch_apply/linear/w/Initializer/truncated_normal/mul"
  op: "Mul"
  input: "agent/batch_apply/linear/w/Initializer/truncated_normal/TruncatedNormal"
  input: "agent/batch_apply/linear/w/Initializer/truncated_normal/stddev"
  attr {
    key: "T"
    value {
      type: DT_FLOAT
    }
  }
  attr {
    key: "_class"
    value {
      list {
        s: "loc:@agent/batch_apply/linear/w"
      }
    }
  }
  attr {
    key: "_output_shapes"
    value {
      list {
        shape {
          dim {
            size: 3872
          }
          dim {
            size: 256
          }
        }
      }
    }
  }
}
node {
  name: "agent/batch_apply/linear/w/Initializer/truncated_normal"
  op: "Add"
  input: "agent/batch_apply/linear/w/Initializer/truncated_normal/mul"
  input: "agent/batch_apply/linear/w/Initializer/truncated_normal/mean"
  attr {
    key: "T"
    value {
      type: DT_FLOAT
    }
  }
  attr {
    key: "_class"
    value {
      list {
        s: "loc:@agent/batch_apply/linear/w"
      }
    }
  }
  attr {
    key: "_output_shapes"
    value {
      list {
        shape {
          dim {
            size: 3872
          }
          dim {
            size: 256
          }
        }
      }
    }
  }
}
node {
  name: "agent/batch_apply/linear/w"
  op: "VariableV2"
  device: "/job:learner/task:0/device:CPU:*"
  attr {
    key: "_class"
    value {
      list {
        s: "loc:@agent/batch_apply/linear/w"
      }
    }
  }
  attr {
    key: "_output_shapes"
    value {
      list {
        shape {
          dim {
            size: 3872
          }
          dim {
            size: 256
          }
        }
      }
    }
  }
  attr {
    key: "container"
    value {
      s: ""
    }
  }
  attr {
    key: "dtype"
    value {
      type: DT_FLOAT
    }
  }
  attr {
    key: "shape"
    value {
      shape {
        dim {
          size: 3872
        }
        dim {
          size: 256
        }
      }
    }
  }
  attr {
    key: "shared_name"
    value {
      s: ""
    }
  }
}
node {
  name: "agent/batch_apply/linear/w/Assign"
  op: "Assign"
  input: "agent/batch_apply/linear/w"
  input: "agent/batch_apply/linear/w/Initializer/truncated_normal"
  device: "/job:learner/task:0/device:CPU:*"
  attr {
    key: "T"
    value {
      type: DT_FLOAT
    }
  }
  attr {
    key: "_class"
    value {
      list {
        s: "loc:@agent/batch_apply/linear/w"
      }
    }
  }
  attr {
    key: "_output_shapes"
    value {
      list {
        shape {
          dim {
            size: 3872
          }
          dim {
            size: 256
          }
        }
      }
    }
  }
  attr {
    key: "use_locking"
    value {
      b: true
    }
  }
  attr {
    key: "validate_shape"
    value {
      b: true
    }
  }
}
node {
  name: "agent/batch_apply/linear/w/read"
  op: "Identity"
  input: "agent/batch_apply/linear/w"
  device: "/job:learner/task:0/device:CPU:*"
  attr {
    key: "T"
    value {
      type: DT_FLOAT
    }
  }
  attr {
    key: "_class"
    value {
      list {
        s: "loc:@agent/batch_apply/linear/w"
      }
    }
  }
  attr {
    key: "_output_shapes"
    value {
      list {
        shape {
          dim {
            size: 3872
          }
          dim {
            size: 256
          }
        }
      }
    }
  }
}
node {
  name: "agent/unroll/batch_apply/linear/MatMul"
  op: "MatMul"
  input: "agent/unroll/batch_apply/batch_flatten/Reshape"
  input: "agent/batch_apply/linear/w/read"
  device: "/job:learner/task:0/device:GPU:*"
  attr {
    key: "T"
    value {
      type: DT_FLOAT
    }
  }
  attr {
    key: "_output_shapes"
    value {
      list {
        shape {
          dim {
            size: 168
          }
          dim {
            size: 256
          }
        }
      }
    }
  }
  attr {
    key: "transpose_a"
    value {
      b: false
    }
  }
  attr {
    key: "transpose_b"
    value {
      b: false
    }
  }
}
node {
  name: "agent/batch_apply/linear/b/Initializer/zeros"
  op: "Const"
  attr {
    key: "_class"
    value {
      list {
        s: "loc:@agent/batch_apply/linear/b"
      }
    }
  }
  attr {
    key: "_output_shapes"
    value {
      list {
        shape {
          dim {
            size: 256
          }
        }
      }
    }
  }
  attr {
    key: "dtype"
    value {
      type: DT_FLOAT
    }
  }
  attr {
    key: "value"
    value {
      tensor {
        dtype: DT_FLOAT
        tensor_shape {
          dim {
            size: 256
          }
        }
        float_val: 0.0
      }
    }
  }
}
node {
  name: "agent/batch_apply/linear/b"
  op: "VariableV2"
  device: "/job:learner/task:0/device:CPU:*"
  attr {
    key: "_class"
    value {
      list {
        s: "loc:@agent/batch_apply/linear/b"
      }
    }
  }
  attr {
    key: "_output_shapes"
    value {
      list {
        shape {
          dim {
            size: 256
          }
        }
      }
    }
  }
  attr {
    key: "container"
    value {
      s: ""
    }
  }
  attr {
    key: "dtype"
    value {
      type: DT_FLOAT
    }
  }
  attr {
    key: "shape"
    value {
      shape {
        dim {
          size: 256
        }
      }
    }
  }
  attr {
    key: "shared_name"
    value {
      s: ""
    }
  }
}
node {
  name: "agent/batch_apply/linear/b/Assign"
  op: "Assign"
  input: "agent/batch_apply/linear/b"
  input: "agent/batch_apply/linear/b/Initializer/zeros"
  device: "/job:learner/task:0/device:CPU:*"
  attr {
    key: "T"
    value {
      type: DT_FLOAT
    }
  }
  attr {
    key: "_class"
    value {
      list {
        s: "loc:@agent/batch_apply/linear/b"
      }
    }
  }
  attr {
    key: "_output_shapes"
    value {
      list {
        shape {
          dim {
            size: 256
          }
        }
      }
    }
  }
  attr {
    key: "use_locking"
    value {
      b: true
    }
  }
  attr {
    key: "validate_shape"
    value {
      b: true
    }
  }
}
node {
  name: "agent/batch_apply/linear/b/read"
  op: "Identity"
  input: "agent/batch_apply/linear/b"
  device: "/job:learner/task:0/device:CPU:*"
  attr {
    key: "T"
    value {
      type: DT_FLOAT
    }
  }
  attr {
    key: "_class"
    value {
      list {
        s: "loc:@agent/batch_apply/linear/b"
      }
    }
  }
  attr {
    key: "_output_shapes"
    value {
      list {
        shape {
          dim {
            size: 256
          }
        }
      }
    }
  }
}
node {
  name: "agent/unroll/batch_apply/linear/add"
  op: "Add"
  input: "agent/unroll/batch_apply/linear/MatMul"
  input: "agent/batch_apply/linear/b/read"
  device: "/job:learner/task:0/device:GPU:*"
  attr {
    key: "T"
    value {
      type: DT_FLOAT
    }
  }
  attr {
    key: "_output_shapes"
    value {
      list {
        shape {
          dim {
            size: 168
          }
          dim {
            size: 256
          }
        }
      }
    }
  }
}
node {
  name: "agent/unroll/batch_apply/Relu_1"
  op: "Relu"
  input: "agent/unroll/batch_apply/linear/add"
  device: "/job:learner/task:0/device:GPU:*"
  attr {
    key: "T"
    value {
      type: DT_FLOAT
    }
  }
  attr {
    key: "_output_shapes"
    value {
      list {
        shape {
          dim {
            size: 168
          }
          dim {
            size: 256
          }
        }
      }
    }
  }
}
node {
  name: "agent/unroll/batch_apply/clip_by_value/Minimum/y"
  op: "Const"
  device: "/job:learner/task:0/device:GPU:*"
  attr {
    key: "_output_shapes"
    value {
      list {
        shape {
        }
      }
    }
  }
  attr {
    key: "dtype"
    value {
      type: DT_FLOAT
    }
  }
  attr {
    key: "value"
    value {
      tensor {
        dtype: DT_FLOAT
        tensor_shape {
        }
        float_val: 1.0
      }
    }
  }
}
node {
  name: "agent/unroll/batch_apply/clip_by_value/Minimum"
  op: "Minimum"
  input: "agent/unroll/batch_apply/Reshape_1"
  input: "agent/unroll/batch_apply/clip_by_value/Minimum/y"
  device: "/job:learner/task:0/device:GPU:*"
  attr {
    key: "T"
    value {
      type: DT_FLOAT
    }
  }
  attr {
    key: "_output_shapes"
    value {
      list {
        shape {
          dim {
            size: 168
          }
        }
      }
    }
  }
}
node {
  name: "agent/unroll/batch_apply/clip_by_value/y"
  op: "Const"
  device: "/job:learner/task:0/device:GPU:*"
  attr {
    key: "_output_shapes"
    value {
      list {
        shape {
        }
      }
    }
  }
  attr {
    key: "dtype"
    value {
      type: DT_FLOAT
    }
  }
  attr {
    key: "value"
    value {
      tensor {
        dtype: DT_FLOAT
        tensor_shape {
        }
        float_val: -1.0
      }
    }
  }
}
node {
  name: "agent/unroll/batch_apply/clip_by_value"
  op: "Maximum"
  input: "agent/unroll/batch_apply/clip_by_value/Minimum"
  input: "agent/unroll/batch_apply/clip_by_value/y"
  device: "/job:learner/task:0/device:GPU:*"
  attr {
    key: "T"
    value {
      type: DT_FLOAT
    }
  }
  attr {
    key: "_output_shapes"
    value {
      list {
        shape {
          dim {
            size: 168
          }
        }
      }
    }
  }
}
node {
  name: "agent/unroll/batch_apply/ExpandDims/dim"
  op: "Const"
  device: "/job:learner/task:0/device:GPU:*"
  attr {
    key: "_output_shapes"
    value {
      list {
        shape {
        }
      }
    }
  }
  attr {
    key: "dtype"
    value {
      type: DT_INT32
    }
  }
  attr {
    key: "value"
    value {
      tensor {
        dtype: DT_INT32
        tensor_shape {
        }
        int_val: -1
      }
    }
  }
}
node {
  name: "agent/unroll/batch_apply/ExpandDims"
  op: "ExpandDims"
  input: "agent/unroll/batch_apply/clip_by_value"
  input: "agent/unroll/batch_apply/ExpandDims/dim"
  device: "/job:learner/task:0/device:GPU:*"
  attr {
    key: "T"
    value {
      type: DT_FLOAT
    }
  }
  attr {
    key: "Tdim"
    value {
      type: DT_INT32
    }
  }
  attr {
    key: "_output_shapes"
    value {
      list {
        shape {
          dim {
            size: 168
          }
          dim {
            size: 1
          }
        }
      }
    }
  }
}
node {
  name: "agent/unroll/batch_apply/one_hot/on_value"
  op: "Const"
  device: "/job:learner/task:0/device:GPU:*"
  attr {
    key: "_output_shapes"
    value {
      list {
        shape {
        }
      }
    }
  }
  attr {
    key: "dtype"
    value {
      type: DT_FLOAT
    }
  }
  attr {
    key: "value"
    value {
      tensor {
        dtype: DT_FLOAT
        tensor_shape {
        }
        float_val: 1.0
      }
    }
  }
}
node {
  name: "agent/unroll/batch_apply/one_hot/off_value"
  op: "Const"
  device: "/job:learner/task:0/device:GPU:*"
  attr {
    key: "_output_shapes"
    value {
      list {
        shape {
        }
      }
    }
  }
  attr {
    key: "dtype"
    value {
      type: DT_FLOAT
    }
  }
  attr {
    key: "value"
    value {
      tensor {
        dtype: DT_FLOAT
        tensor_shape {
        }
        float_val: 0.0
      }
    }
  }
}
node {
  name: "agent/unroll/batch_apply/one_hot/depth"
  op: "Const"
  device: "/job:learner/task:0/device:GPU:*"
  attr {
    key: "_output_shapes"
    value {
      list {
        shape {
        }
      }
    }
  }
  attr {
    key: "dtype"
    value {
      type: DT_INT32
    }
  }
  attr {
    key: "value"
    value {
      tensor {
        dtype: DT_INT32
        tensor_shape {
        }
        int_val: 18
      }
    }
  }
}
node {
  name: "agent/unroll/batch_apply/one_hot"
  op: "OneHot"
  input: "agent/unroll/batch_apply/Reshape"
  input: "agent/unroll/batch_apply/one_hot/depth"
  input: "agent/unroll/batch_apply/one_hot/on_value"
  input: "agent/unroll/batch_apply/one_hot/off_value"
  device: "/job:learner/task:0/device:GPU:*"
  attr {
    key: "T"
    value {
      type: DT_FLOAT
    }
  }
  attr {
    key: "TI"
    value {
      type: DT_INT32
    }
  }
  attr {
    key: "_output_shapes"
    value {
      list {
        shape {
          dim {
            size: 168
          }
          dim {
            size: 18
          }
        }
      }
    }
  }
  attr {
    key: "axis"
    value {
      i: -1
    }
  }
}
node {
  name: "agent/unroll/batch_apply/concat/axis"
  op: "Const"
  device: "/job:learner/task:0/device:GPU:*"
  attr {
    key: "_output_shapes"
    value {
      list {
        shape {
        }
      }
    }
  }
  attr {
    key: "dtype"
    value {
      type: DT_INT32
    }
  }
  attr {
    key: "value"
    value {
      tensor {
        dtype: DT_INT32
        tensor_shape {
        }
        int_val: 1
      }
    }
  }
}
node {
  name: "agent/unroll/batch_apply/concat"
  op: "ConcatV2"
  input: "agent/unroll/batch_apply/Relu_1"
  input: "agent/unroll/batch_apply/ExpandDims"
  input: "agent/unroll/batch_apply/one_hot"
  input: "agent/unroll/batch_apply/concat/axis"
  device: "/job:learner/task:0/device:GPU:*"
  attr {
    key: "N"
    value {
      i: 3
    }
  }
  attr {
    key: "T"
    value {
      type: DT_FLOAT
    }
  }
  attr {
    key: "Tidx"
    value {
      type: DT_INT32
    }
  }
  attr {
    key: "_output_shapes"
    value {
      list {
        shape {
          dim {
            size: 168
          }
          dim {
            size: 275
          }
        }
      }
    }
  }
}
node {
  name: "agent/unroll/batch_apply/Reshape_7/shape"
  op: "Const"
  device: "/job:learner/task:0/device:GPU:*"
  attr {
    key: "_output_shapes"
    value {
      list {
        shape {
          dim {
            size: 3
          }
        }
      }
    }
  }
  attr {
    key: "dtype"
    value {
      type: DT_INT32
    }
  }
  attr {
    key: "value"
    value {
      tensor {
        dtype: DT_INT32
        tensor_shape {
          dim {
            size: 3
          }
        }
        tensor_content: "\025\000\000\000\010\000\000\000\023\001\000\000"
      }
    }
  }
}
node {
  name: "agent/unroll/batch_apply/Reshape_7"
  op: "Reshape"
  input: "agent/unroll/batch_apply/concat"
  input: "agent/unroll/batch_apply/Reshape_7/shape"
  device: "/job:learner/task:0/device:GPU:*"
  attr {
    key: "T"
    value {
      type: DT_FLOAT
    }
  }
  attr {
    key: "Tshape"
    value {
      type: DT_INT32
    }
  }
  attr {
    key: "_output_shapes"
    value {
      list {
        shape {
          dim {
            size: 21
          }
          dim {
            size: 8
          }
          dim {
            size: 275
          }
        }
      }
    }
  }
}
node {
  name: "agent/unroll/Shape"
  op: "Const"
  device: "/job:learner/task:0/device:GPU:*"
  attr {
    key: "_output_shapes"
    value {
      list {
        shape {
          dim {
            size: 2
          }
        }
      }
    }
  }
  attr {
    key: "dtype"
    value {
      type: DT_INT32
    }
  }
  attr {
    key: "value"
    value {
      tensor {
        dtype: DT_INT32
        tensor_shape {
          dim {
            size: 2
          }
        }
        tensor_content: "\025\000\000\000\010\000\000\000"
      }
    }
  }
}
node {
  name: "agent/unroll/strided_slice/stack"
  op: "Const"
  device: "/job:learner/task:0/device:GPU:*"
  attr {
    key: "_output_shapes"
    value {
      list {
        shape {
          dim {
            size: 1
          }
        }
      }
    }
  }
  attr {
    key: "dtype"
    value {
      type: DT_INT32
    }
  }
  attr {
    key: "value"
    value {
      tensor {
        dtype: DT_INT32
        tensor_shape {
          dim {
            size: 1
          }
        }
        int_val: 1
      }
    }
  }
}
node {
  name: "agent/unroll/strided_slice/stack_1"
  op: "Const"
  device: "/job:learner/task:0/device:GPU:*"
  attr {
    key: "_output_shapes"
    value {
      list {
        shape {
          dim {
            size: 1
          }
        }
      }
    }
  }
  attr {
    key: "dtype"
    value {
      type: DT_INT32
    }
  }
  attr {
    key: "value"
    value {
      tensor {
        dtype: DT_INT32
        tensor_shape {
          dim {
            size: 1
          }
        }
        int_val: 2
      }
    }
  }
}
node {
  name: "agent/unroll/strided_slice/stack_2"
  op: "Const"
  device: "/job:learner/task:0/device:GPU:*"
  attr {
    key: "_output_shapes"
    value {
      list {
        shape {
          dim {
            size: 1
          }
        }
      }
    }
  }
  attr {
    key: "dtype"
    value {
      type: DT_INT32
    }
  }
  attr {
    key: "value"
    value {
      tensor {
        dtype: DT_INT32
        tensor_shape {
          dim {
            size: 1
          }
        }
        int_val: 1
      }
    }
  }
}
node {
  name: "agent/unroll/strided_slice"
  op: "StridedSlice"
  input: "agent/unroll/Shape"
  input: "agent/unroll/strided_slice/stack"
  input: "agent/unroll/strided_slice/stack_1"
  input: "agent/unroll/strided_slice/stack_2"
  device: "/job:learner/task:0/device:GPU:*"
  attr {
    key: "Index"
    value {
      type: DT_INT32
    }
  }
  attr {
    key: "T"
    value {
      type: DT_INT32
    }
  }
  attr {
    key: "_output_shapes"
    value {
      list {
        shape {
        }
      }
    }
  }
  attr {
    key: "begin_mask"
    value {
      i: 0
    }
  }
  attr {
    key: "ellipsis_mask"
    value {
      i: 0
    }
  }
  attr {
    key: "end_mask"
    value {
      i: 0
    }
  }
  attr {
    key: "new_axis_mask"
    value {
      i: 0
    }
  }
  attr {
    key: "shrink_axis_mask"
    value {
      i: 1
    }
  }
}
node {
  name: "agent/unroll/LSTMBlockCellZeroState/ExpandDims/dim"
  op: "Const"
  device: "/job:learner/task:0/device:GPU:*"
  attr {
    key: "_output_shapes"
    value {
      list {
        shape {
        }
      }
    }
  }
  attr {
    key: "dtype"
    value {
      type: DT_INT32
    }
  }
  attr {
    key: "value"
    value {
      tensor {
        dtype: DT_INT32
        tensor_shape {
        }
        int_val: 0
      }
    }
  }
}
node {
  name: "agent/unroll/LSTMBlockCellZeroState/ExpandDims"
  op: "ExpandDims"
  input: "agent/unroll/strided_slice"
  input: "agent/unroll/LSTMBlockCellZeroState/ExpandDims/dim"
  device: "/job:learner/task:0/device:GPU:*"
  attr {
    key: "T"
    value {
      type: DT_INT32
    }
  }
  attr {
    key: "Tdim"
    value {
      type: DT_INT32
    }
  }
  attr {
    key: "_output_shapes"
    value {
      list {
        shape {
          dim {
            size: 1
          }
        }
      }
    }
  }
}
node {
  name: "agent/unroll/LSTMBlockCellZeroState/Const"
  op: "Const"
  device: "/job:learner/task:0/device:GPU:*"
  attr {
    key: "_output_shapes"
    value {
      list {
        shape {
          dim {
            size: 1
          }
        }
      }
    }
  }
  attr {
    key: "dtype"
    value {
      type: DT_INT32
    }
  }
  attr {
    key: "value"
    value {
      tensor {
        dtype: DT_INT32
        tensor_shape {
          dim {
            size: 1
          }
        }
        int_val: 256
      }
    }
  }
}
node {
  name: "agent/unroll/LSTMBlockCellZeroState/concat/axis"
  op: "Const"
  device: "/job:learner/task:0/device:GPU:*"
  attr {
    key: "_output_shapes"
    value {
      list {
        shape {
        }
      }
    }
  }
  attr {
    key: "dtype"
    value {
      type: DT_INT32
    }
  }
  attr {
    key: "value"
    value {
      tensor {
        dtype: DT_INT32
        tensor_shape {
        }
        int_val: 0
      }
    }
  }
}
node {
  name: "agent/unroll/LSTMBlockCellZeroState/concat"
  op: "ConcatV2"
  input: "agent/unroll/LSTMBlockCellZeroState/ExpandDims"
  input: "agent/unroll/LSTMBlockCellZeroState/Const"
  input: "agent/unroll/LSTMBlockCellZeroState/concat/axis"
  device: "/job:learner/task:0/device:GPU:*"
  attr {
    key: "N"
    value {
      i: 2
    }
  }
  attr {
    key: "T"
    value {
      type: DT_INT32
    }
  }
  attr {
    key: "Tidx"
    value {
      type: DT_INT32
    }
  }
  attr {
    key: "_output_shapes"
    value {
      list {
        shape {
          dim {
            size: 2
          }
        }
      }
    }
  }
}
node {
  name: "agent/unroll/LSTMBlockCellZeroState/zeros/Const"
  op: "Const"
  device: "/job:learner/task:0/device:GPU:*"
  attr {
    key: "_output_shapes"
    value {
      list {
        shape {
        }
      }
    }
  }
  attr {
    key: "dtype"
    value {
      type: DT_FLOAT
    }
  }
  attr {
    key: "value"
    value {
      tensor {
        dtype: DT_FLOAT
        tensor_shape {
        }
        float_val: 0.0
      }
    }
  }
}
node {
  name: "agent/unroll/LSTMBlockCellZeroState/zeros"
  op: "Fill"
  input: "agent/unroll/LSTMBlockCellZeroState/concat"
  input: "agent/unroll/LSTMBlockCellZeroState/zeros/Const"
  device: "/job:learner/task:0/device:GPU:*"
  attr {
    key: "T"
    value {
      type: DT_FLOAT
    }
  }
  attr {
    key: "_output_shapes"
    value {
      list {
        shape {
          dim {
            size: 8
          }
          dim {
            size: 256
          }
        }
      }
    }
  }
  attr {
    key: "index_type"
    value {
      type: DT_INT32
    }
  }
}
node {
  name: "agent/unroll/LSTMBlockCellZeroState/ExpandDims_1/dim"
  op: "Const"
  device: "/job:learner/task:0/device:GPU:*"
  attr {
    key: "_output_shapes"
    value {
      list {
        shape {
        }
      }
    }
  }
  attr {
    key: "dtype"
    value {
      type: DT_INT32
    }
  }
  attr {
    key: "value"
    value {
      tensor {
        dtype: DT_INT32
        tensor_shape {
        }
        int_val: 0
      }
    }
  }
}
node {
  name: "agent/unroll/LSTMBlockCellZeroState/ExpandDims_1"
  op: "ExpandDims"
  input: "agent/unroll/strided_slice"
  input: "agent/unroll/LSTMBlockCellZeroState/ExpandDims_1/dim"
  device: "/job:learner/task:0/device:GPU:*"
  attr {
    key: "T"
    value {
      type: DT_INT32
    }
  }
  attr {
    key: "Tdim"
    value {
      type: DT_INT32
    }
  }
  attr {
    key: "_output_shapes"
    value {
      list {
        shape {
          dim {
            size: 1
          }
        }
      }
    }
  }
}
node {
  name: "agent/unroll/LSTMBlockCellZeroState/Const_1"
  op: "Const"
  device: "/job:learner/task:0/device:GPU:*"
  attr {
    key: "_output_shapes"
    value {
      list {
        shape {
          dim {
            size: 1
          }
        }
      }
    }
  }
  attr {
    key: "dtype"
    value {
      type: DT_INT32
    }
  }
  attr {
    key: "value"
    value {
      tensor {
        dtype: DT_INT32
        tensor_shape {
          dim {
            size: 1
          }
        }
        int_val: 256
      }
    }
  }
}
node {
  name: "agent/unroll/LSTMBlockCellZeroState/ExpandDims_2/dim"
  op: "Const"
  device: "/job:learner/task:0/device:GPU:*"
  attr {
    key: "_output_shapes"
    value {
      list {
        shape {
        }
      }
    }
  }
  attr {
    key: "dtype"
    value {
      type: DT_INT32
    }
  }
  attr {
    key: "value"
    value {
      tensor {
        dtype: DT_INT32
        tensor_shape {
        }
        int_val: 0
      }
    }
  }
}
node {
  name: "agent/unroll/LSTMBlockCellZeroState/ExpandDims_2"
  op: "ExpandDims"
  input: "agent/unroll/strided_slice"
  input: "agent/unroll/LSTMBlockCellZeroState/ExpandDims_2/dim"
  device: "/job:learner/task:0/device:GPU:*"
  attr {
    key: "T"
    value {
      type: DT_INT32
    }
  }
  attr {
    key: "Tdim"
    value {
      type: DT_INT32
    }
  }
  attr {
    key: "_output_shapes"
    value {
      list {
        shape {
          dim {
            size: 1
          }
        }
      }
    }
  }
}
node {
  name: "agent/unroll/LSTMBlockCellZeroState/Const_2"
  op: "Const"
  device: "/job:learner/task:0/device:GPU:*"
  attr {
    key: "_output_shapes"
    value {
      list {
        shape {
          dim {
            size: 1
          }
        }
      }
    }
  }
  attr {
    key: "dtype"
    value {
      type: DT_INT32
    }
  }
  attr {
    key: "value"
    value {
      tensor {
        dtype: DT_INT32
        tensor_shape {
          dim {
            size: 1
          }
        }
        int_val: 256
      }
    }
  }
}
node {
  name: "agent/unroll/LSTMBlockCellZeroState/concat_1/axis"
  op: "Const"
  device: "/job:learner/task:0/device:GPU:*"
  attr {
    key: "_output_shapes"
    value {
      list {
        shape {
        }
      }
    }
  }
  attr {
    key: "dtype"
    value {
      type: DT_INT32
    }
  }
  attr {
    key: "value"
    value {
      tensor {
        dtype: DT_INT32
        tensor_shape {
        }
        int_val: 0
      }
    }
  }
}
node {
  name: "agent/unroll/LSTMBlockCellZeroState/concat_1"
  op: "ConcatV2"
  input: "agent/unroll/LSTMBlockCellZeroState/ExpandDims_2"
  input: "agent/unroll/LSTMBlockCellZeroState/Const_2"
  input: "agent/unroll/LSTMBlockCellZeroState/concat_1/axis"
  device: "/job:learner/task:0/device:GPU:*"
  attr {
    key: "N"
    value {
      i: 2
    }
  }
  attr {
    key: "T"
    value {
      type: DT_INT32
    }
  }
  attr {
    key: "Tidx"
    value {
      type: DT_INT32
    }
  }
  attr {
    key: "_output_shapes"
    value {
      list {
        shape {
          dim {
            size: 2
          }
        }
      }
    }
  }
}
node {
  name: "agent/unroll/LSTMBlockCellZeroState/zeros_1/Const"
  op: "Const"
  device: "/job:learner/task:0/device:GPU:*"
  attr {
    key: "_output_shapes"
    value {
      list {
        shape {
        }
      }
    }
  }
  attr {
    key: "dtype"
    value {
      type: DT_FLOAT
    }
  }
  attr {
    key: "value"
    value {
      tensor {
        dtype: DT_FLOAT
        tensor_shape {
        }
        float_val: 0.0
      }
    }
  }
}
node {
  name: "agent/unroll/LSTMBlockCellZeroState/zeros_1"
  op: "Fill"
  input: "agent/unroll/LSTMBlockCellZeroState/concat_1"
  input: "agent/unroll/LSTMBlockCellZeroState/zeros_1/Const"
  device: "/job:learner/task:0/device:GPU:*"
  attr {
    key: "T"
    value {
      type: DT_FLOAT
    }
  }
  attr {
    key: "_output_shapes"
    value {
      list {
        shape {
          dim {
            size: 8
          }
          dim {
            size: 256
          }
        }
      }
    }
  }
  attr {
    key: "index_type"
    value {
      type: DT_INT32
    }
  }
}
node {
  name: "agent/unroll/LSTMBlockCellZeroState/ExpandDims_3/dim"
  op: "Const"
  device: "/job:learner/task:0/device:GPU:*"
  attr {
    key: "_output_shapes"
    value {
      list {
        shape {
        }
      }
    }
  }
  attr {
    key: "dtype"
    value {
      type: DT_INT32
    }
  }
  attr {
    key: "value"
    value {
      tensor {
        dtype: DT_INT32
        tensor_shape {
        }
        int_val: 0
      }
    }
  }
}
node {
  name: "agent/unroll/LSTMBlockCellZeroState/ExpandDims_3"
  op: "ExpandDims"
  input: "agent/unroll/strided_slice"
  input: "agent/unroll/LSTMBlockCellZeroState/ExpandDims_3/dim"
  device: "/job:learner/task:0/device:GPU:*"
  attr {
    key: "T"
    value {
      type: DT_INT32
    }
  }
  attr {
    key: "Tdim"
    value {
      type: DT_INT32
    }
  }
  attr {
    key: "_output_shapes"
    value {
      list {
        shape {
          dim {
            size: 1
          }
        }
      }
    }
  }
}
node {
  name: "agent/unroll/LSTMBlockCellZeroState/Const_3"
  op: "Const"
  device: "/job:learner/task:0/device:GPU:*"
  attr {
    key: "_output_shapes"
    value {
      list {
        shape {
          dim {
            size: 1
          }
        }
      }
    }
  }
  attr {
    key: "dtype"
    value {
      type: DT_INT32
    }
  }
  attr {
    key: "value"
    value {
      tensor {
        dtype: DT_INT32
        tensor_shape {
          dim {
            size: 1
          }
        }
        int_val: 256
      }
    }
  }
}
node {
  name: "agent/unroll/unstack"
  op: "Unpack"
  input: "agent/unroll/batch_apply/Reshape_7"
  device: "/job:learner/task:0/device:GPU:*"
  attr {
    key: "T"
    value {
      type: DT_FLOAT
    }
  }
  attr {
    key: "_output_shapes"
    value {
      list {
        shape {
          dim {
            size: 8
          }
          dim {
            size: 275
          }
        }
        shape {
          dim {
            size: 8
          }
          dim {
            size: 275
          }
        }
        shape {
          dim {
            size: 8
          }
          dim {
            size: 275
          }
        }
        shape {
          dim {
            size: 8
          }
          dim {
            size: 275
          }
        }
        shape {
          dim {
            size: 8
          }
          dim {
            size: 275
          }
        }
        shape {
          dim {
            size: 8
          }
          dim {
            size: 275
          }
        }
        shape {
          dim {
            size: 8
          }
          dim {
            size: 275
          }
        }
        shape {
          dim {
            size: 8
          }
          dim {
            size: 275
          }
        }
        shape {
          dim {
            size: 8
          }
          dim {
            size: 275
          }
        }
        shape {
          dim {
            size: 8
          }
          dim {
            size: 275
          }
        }
        shape {
          dim {
            size: 8
          }
          dim {
            size: 275
          }
        }
        shape {
          dim {
            size: 8
          }
          dim {
            size: 275
          }
        }
        shape {
          dim {
            size: 8
          }
          dim {
            size: 275
          }
        }
        shape {
          dim {
            size: 8
          }
          dim {
            size: 275
          }
        }
        shape {
          dim {
            size: 8
          }
          dim {
            size: 275
          }
        }
        shape {
          dim {
            size: 8
          }
          dim {
            size: 275
          }
        }
        shape {
          dim {
            size: 8
          }
          dim {
            size: 275
          }
        }
        shape {
          dim {
            size: 8
          }
          dim {
            size: 275
          }
        }
        shape {
          dim {
            size: 8
          }
          dim {
            size: 275
          }
        }
        shape {
          dim {
            size: 8
          }
          dim {
            size: 275
          }
        }
        shape {
          dim {
            size: 8
          }
          dim {
            size: 275
          }
        }
      }
    }
  }
  attr {
    key: "axis"
    value {
      i: 0
    }
  }
  attr {
    key: "num"
    value {
      i: 21
    }
  }
}
node {
  name: "agent/unroll/unstack_1"
  op: "Unpack"
  input: "StagingArea_get:6"
  device: "/job:learner/task:0/device:GPU:*"
  attr {
    key: "T"
    value {
      type: DT_BOOL
    }
  }
  attr {
    key: "_output_shapes"
    value {
      list {
        shape {
          dim {
            size: 8
          }
        }
        shape {
          dim {
            size: 8
          }
        }
        shape {
          dim {
            size: 8
          }
        }
        shape {
          dim {
            size: 8
          }
        }
        shape {
          dim {
            size: 8
          }
        }
        shape {
          dim {
            size: 8
          }
        }
        shape {
          dim {
            size: 8
          }
        }
        shape {
          dim {
            size: 8
          }
        }
        shape {
          dim {
            size: 8
          }
        }
        shape {
          dim {
            size: 8
          }
        }
        shape {
          dim {
            size: 8
          }
        }
        shape {
          dim {
            size: 8
          }
        }
        shape {
          dim {
            size: 8
          }
        }
        shape {
          dim {
            size: 8
          }
        }
        shape {
          dim {
            size: 8
          }
        }
        shape {
          dim {
            size: 8
          }
        }
        shape {
          dim {
            size: 8
          }
        }
        shape {
          dim {
            size: 8
          }
        }
        shape {
          dim {
            size: 8
          }
        }
        shape {
          dim {
            size: 8
          }
        }
        shape {
          dim {
            size: 8
          }
        }
      }
    }
  }
  attr {
    key: "axis"
    value {
      i: 0
    }
  }
  attr {
    key: "num"
    value {
      i: 21
    }
  }
}
node {
  name: "agent/unroll/Select"
  op: "Select"
  input: "agent/unroll/unstack_1"
  input: "agent/unroll/LSTMBlockCellZeroState/zeros"
  input: "StagingArea_get:1"
  device: "/job:learner/task:0/device:GPU:*"
  attr {
    key: "T"
    value {
      type: DT_FLOAT
    }
  }
  attr {
    key: "_output_shapes"
    value {
      list {
        shape {
          dim {
            size: 8
          }
          dim {
            size: 256
          }
        }
      }
    }
  }
}
node {
  name: "agent/unroll/Select_1"
  op: "Select"
  input: "agent/unroll/unstack_1"
  input: "agent/unroll/LSTMBlockCellZeroState/zeros_1"
  input: "StagingArea_get:2"
  device: "/job:learner/task:0/device:GPU:*"
  attr {
    key: "T"
    value {
      type: DT_FLOAT
    }
  }
  attr {
    key: "_output_shapes"
    value {
      list {
        shape {
          dim {
            size: 8
          }
          dim {
            size: 256
          }
        }
      }
    }
  }
}
node {
  name: "agent/lstm_cell/kernel/Initializer/random_uniform/shape"
  op: "Const"
  attr {
    key: "_class"
    value {
      list {
        s: "loc:@agent/lstm_cell/kernel"
      }
    }
  }
  attr {
    key: "_output_shapes"
    value {
      list {
        shape {
          dim {
            size: 2
          }
        }
      }
    }
  }
  attr {
    key: "dtype"
    value {
      type: DT_INT32
    }
  }
  attr {
    key: "value"
    value {
      tensor {
        dtype: DT_INT32
        tensor_shape {
          dim {
            size: 2
          }
        }
        tensor_content: "\023\002\000\000\000\004\000\000"
      }
    }
  }
}
node {
  name: "agent/lstm_cell/kernel/Initializer/random_uniform/min"
  op: "Const"
  attr {
    key: "_class"
    value {
      list {
        s: "loc:@agent/lstm_cell/kernel"
      }
    }
  }
  attr {
    key: "_output_shapes"
    value {
      list {
        shape {
        }
      }
    }
  }
  attr {
    key: "dtype"
    value {
      type: DT_FLOAT
    }
  }
  attr {
    key: "value"
    value {
      tensor {
        dtype: DT_FLOAT
        tensor_shape {
        }
        float_val: -0.0621169954538
      }
    }
  }
}
node {
  name: "agent/lstm_cell/kernel/Initializer/random_uniform/max"
  op: "Const"
  attr {
    key: "_class"
    value {
      list {
        s: "loc:@agent/lstm_cell/kernel"
      }
    }
  }
  attr {
    key: "_output_shapes"
    value {
      list {
        shape {
        }
      }
    }
  }
  attr {
    key: "dtype"
    value {
      type: DT_FLOAT
    }
  }
  attr {
    key: "value"
    value {
      tensor {
        dtype: DT_FLOAT
        tensor_shape {
        }
        float_val: 0.0621169954538
      }
    }
  }
}
node {
  name: "agent/lstm_cell/kernel/Initializer/random_uniform/RandomUniform"
  op: "RandomUniform"
  input: "agent/lstm_cell/kernel/Initializer/random_uniform/shape"
  attr {
    key: "T"
    value {
      type: DT_INT32
    }
  }
  attr {
    key: "_class"
    value {
      list {
        s: "loc:@agent/lstm_cell/kernel"
      }
    }
  }
  attr {
    key: "_output_shapes"
    value {
      list {
        shape {
          dim {
            size: 531
          }
          dim {
            size: 1024
          }
        }
      }
    }
  }
  attr {
    key: "dtype"
    value {
      type: DT_FLOAT
    }
  }
  attr {
    key: "seed"
    value {
      i: 1
    }
  }
  attr {
    key: "seed2"
    value {
      i: 172
    }
  }
}
node {
  name: "agent/lstm_cell/kernel/Initializer/random_uniform/sub"
  op: "Sub"
  input: "agent/lstm_cell/kernel/Initializer/random_uniform/max"
  input: "agent/lstm_cell/kernel/Initializer/random_uniform/min"
  attr {
    key: "T"
    value {
      type: DT_FLOAT
    }
  }
  attr {
    key: "_class"
    value {
      list {
        s: "loc:@agent/lstm_cell/kernel"
      }
    }
  }
  attr {
    key: "_output_shapes"
    value {
      list {
        shape {
        }
      }
    }
  }
}
node {
  name: "agent/lstm_cell/kernel/Initializer/random_uniform/mul"
  op: "Mul"
  input: "agent/lstm_cell/kernel/Initializer/random_uniform/RandomUniform"
  input: "agent/lstm_cell/kernel/Initializer/random_uniform/sub"
  attr {
    key: "T"
    value {
      type: DT_FLOAT
    }
  }
  attr {
    key: "_class"
    value {
      list {
        s: "loc:@agent/lstm_cell/kernel"
      }
    }
  }
  attr {
    key: "_output_shapes"
    value {
      list {
        shape {
          dim {
            size: 531
          }
          dim {
            size: 1024
          }
        }
      }
    }
  }
}
node {
  name: "agent/lstm_cell/kernel/Initializer/random_uniform"
  op: "Add"
  input: "agent/lstm_cell/kernel/Initializer/random_uniform/mul"
  input: "agent/lstm_cell/kernel/Initializer/random_uniform/min"
  attr {
    key: "T"
    value {
      type: DT_FLOAT
    }
  }
  attr {
    key: "_class"
    value {
      list {
        s: "loc:@agent/lstm_cell/kernel"
      }
    }
  }
  attr {
    key: "_output_shapes"
    value {
      list {
        shape {
          dim {
            size: 531
          }
          dim {
            size: 1024
          }
        }
      }
    }
  }
}
node {
  name: "agent/lstm_cell/kernel"
  op: "VariableV2"
  device: "/job:learner/task:0/device:CPU:*"
  attr {
    key: "_class"
    value {
      list {
        s: "loc:@agent/lstm_cell/kernel"
      }
    }
  }
  attr {
    key: "_output_shapes"
    value {
      list {
        shape {
          dim {
            size: 531
          }
          dim {
            size: 1024
          }
        }
      }
    }
  }
  attr {
    key: "container"
    value {
      s: ""
    }
  }
  attr {
    key: "dtype"
    value {
      type: DT_FLOAT
    }
  }
  attr {
    key: "shape"
    value {
      shape {
        dim {
          size: 531
        }
        dim {
          size: 1024
        }
      }
    }
  }
  attr {
    key: "shared_name"
    value {
      s: ""
    }
  }
}
node {
  name: "agent/lstm_cell/kernel/Assign"
  op: "Assign"
  input: "agent/lstm_cell/kernel"
  input: "agent/lstm_cell/kernel/Initializer/random_uniform"
  device: "/job:learner/task:0/device:CPU:*"
  attr {
    key: "T"
    value {
      type: DT_FLOAT
    }
  }
  attr {
    key: "_class"
    value {
      list {
        s: "loc:@agent/lstm_cell/kernel"
      }
    }
  }
  attr {
    key: "_output_shapes"
    value {
      list {
        shape {
          dim {
            size: 531
          }
          dim {
            size: 1024
          }
        }
      }
    }
  }
  attr {
    key: "use_locking"
    value {
      b: true
    }
  }
  attr {
    key: "validate_shape"
    value {
      b: true
    }
  }
}
node {
  name: "agent/lstm_cell/kernel/read"
  op: "Identity"
  input: "agent/lstm_cell/kernel"
  device: "/job:learner/task:0/device:CPU:*"
  attr {
    key: "T"
    value {
      type: DT_FLOAT
    }
  }
  attr {
    key: "_class"
    value {
      list {
        s: "loc:@agent/lstm_cell/kernel"
      }
    }
  }
  attr {
    key: "_output_shapes"
    value {
      list {
        shape {
          dim {
            size: 531
          }
          dim {
            size: 1024
          }
        }
      }
    }
  }
}
node {
  name: "agent/lstm_cell/bias/Initializer/Const"
  op: "Const"
  attr {
    key: "_class"
    value {
      list {
        s: "loc:@agent/lstm_cell/bias"
      }
    }
  }
  attr {
    key: "_output_shapes"
    value {
      list {
        shape {
          dim {
            size: 1024
          }
        }
      }
    }
  }
  attr {
    key: "dtype"
    value {
      type: DT_FLOAT
    }
  }
  attr {
    key: "value"
    value {
      tensor {
        dtype: DT_FLOAT
        tensor_shape {
          dim {
            size: 1024
          }
        }
        float_val: 0.0
      }
    }
  }
}
node {
  name: "agent/lstm_cell/bias"
  op: "VariableV2"
  device: "/job:learner/task:0/device:CPU:*"
  attr {
    key: "_class"
    value {
      list {
        s: "loc:@agent/lstm_cell/bias"
      }
    }
  }
  attr {
    key: "_output_shapes"
    value {
      list {
        shape {
          dim {
            size: 1024
          }
        }
      }
    }
  }
  attr {
    key: "container"
    value {
      s: ""
    }
  }
  attr {
    key: "dtype"
    value {
      type: DT_FLOAT
    }
  }
  attr {
    key: "shape"
    value {
      shape {
        dim {
          size: 1024
        }
      }
    }
  }
  attr {
    key: "shared_name"
    value {
      s: ""
    }
  }
}
node {
  name: "agent/lstm_cell/bias/Assign"
  op: "Assign"
  input: "agent/lstm_cell/bias"
  input: "agent/lstm_cell/bias/Initializer/Const"
  device: "/job:learner/task:0/device:CPU:*"
  attr {
    key: "T"
    value {
      type: DT_FLOAT
    }
  }
  attr {
    key: "_class"
    value {
      list {
        s: "loc:@agent/lstm_cell/bias"
      }
    }
  }
  attr {
    key: "_output_shapes"
    value {
      list {
        shape {
          dim {
            size: 1024
          }
        }
      }
    }
  }
  attr {
    key: "use_locking"
    value {
      b: true
    }
  }
  attr {
    key: "validate_shape"
    value {
      b: true
    }
  }
}
node {
  name: "agent/lstm_cell/bias/read"
  op: "Identity"
  input: "agent/lstm_cell/bias"
  device: "/job:learner/task:0/device:CPU:*"
  attr {
    key: "T"
    value {
      type: DT_FLOAT
    }
  }
  attr {
    key: "_class"
    value {
      list {
        s: "loc:@agent/lstm_cell/bias"
      }
    }
  }
  attr {
    key: "_output_shapes"
    value {
      list {
        shape {
          dim {
            size: 1024
          }
        }
      }
    }
  }
}
node {
  name: "agent/unroll/lstm_cell/zeros"
  op: "Const"
  device: "/job:learner/task:0/device:GPU:*"
  attr {
    key: "_output_shapes"
    value {
      list {
        shape {
          dim {
            size: 256
          }
        }
      }
    }
  }
  attr {
    key: "dtype"
    value {
      type: DT_FLOAT
    }
  }
  attr {
    key: "value"
    value {
      tensor {
        dtype: DT_FLOAT
        tensor_shape {
          dim {
            size: 256
          }
        }
        float_val: 0.0
      }
    }
  }
}
node {
  name: "agent/unroll/lstm_cell/LSTMBlockCell"
  op: "LSTMBlockCell"
  input: "agent/unroll/unstack"
  input: "agent/unroll/Select"
  input: "agent/unroll/Select_1"
  input: "agent/lstm_cell/kernel/read"
  input: "agent/unroll/lstm_cell/zeros"
  input: "agent/unroll/lstm_cell/zeros"
  input: "agent/unroll/lstm_cell/zeros"
  input: "agent/lstm_cell/bias/read"
  device: "/job:learner/task:0/device:GPU:*"
  attr {
    key: "T"
    value {
      type: DT_FLOAT
    }
  }
  attr {
    key: "_output_shapes"
    value {
      list {
        shape {
          dim {
            size: 8
          }
          dim {
            size: 256
          }
        }
        shape {
          dim {
            size: 8
          }
          dim {
            size: 256
          }
        }
        shape {
          dim {
            size: 8
          }
          dim {
            size: 256
          }
        }
        shape {
          dim {
            size: 8
          }
          dim {
            size: 256
          }
        }
        shape {
          dim {
            size: 8
          }
          dim {
            size: 256
          }
        }
        shape {
          dim {
            size: 8
          }
          dim {
            size: 256
          }
        }
        shape {
          dim {
            size: 8
          }
          dim {
            size: 256
          }
        }
      }
    }
  }
  attr {
    key: "cell_clip"
    value {
      f: -1.0
    }
  }
  attr {
    key: "forget_bias"
    value {
      f: 1.0
    }
  }
  attr {
    key: "use_peephole"
    value {
      b: false
    }
  }
}
node {
  name: "agent/unroll/Select_2"
  op: "Select"
  input: "agent/unroll/unstack_1:1"
  input: "agent/unroll/LSTMBlockCellZeroState/zeros"
  input: "agent/unroll/lstm_cell/LSTMBlockCell:1"
  device: "/job:learner/task:0/device:GPU:*"
  attr {
    key: "T"
    value {
      type: DT_FLOAT
    }
  }
  attr {
    key: "_output_shapes"
    value {
      list {
        shape {
          dim {
            size: 8
          }
          dim {
            size: 256
          }
        }
      }
    }
  }
}
node {
  name: "agent/unroll/Select_3"
  op: "Select"
  input: "agent/unroll/unstack_1:1"
  input: "agent/unroll/LSTMBlockCellZeroState/zeros_1"
  input: "agent/unroll/lstm_cell/LSTMBlockCell:6"
  device: "/job:learner/task:0/device:GPU:*"
  attr {
    key: "T"
    value {
      type: DT_FLOAT
    }
  }
  attr {
    key: "_output_shapes"
    value {
      list {
        shape {
          dim {
            size: 8
          }
          dim {
            size: 256
          }
        }
      }
    }
  }
}
node {
  name: "agent/unroll/lstm_cell/zeros_1"
  op: "Const"
  device: "/job:learner/task:0/device:GPU:*"
  attr {
    key: "_output_shapes"
    value {
      list {
        shape {
          dim {
            size: 256
          }
        }
      }
    }
  }
  attr {
    key: "dtype"
    value {
      type: DT_FLOAT
    }
  }
  attr {
    key: "value"
    value {
      tensor {
        dtype: DT_FLOAT
        tensor_shape {
          dim {
            size: 256
          }
        }
        float_val: 0.0
      }
    }
  }
}
node {
  name: "agent/unroll/lstm_cell/LSTMBlockCell_1"
  op: "LSTMBlockCell"
  input: "agent/unroll/unstack:1"
  input: "agent/unroll/Select_2"
  input: "agent/unroll/Select_3"
  input: "agent/lstm_cell/kernel/read"
  input: "agent/unroll/lstm_cell/zeros_1"
  input: "agent/unroll/lstm_cell/zeros_1"
  input: "agent/unroll/lstm_cell/zeros_1"
  input: "agent/lstm_cell/bias/read"
  device: "/job:learner/task:0/device:GPU:*"
  attr {
    key: "T"
    value {
      type: DT_FLOAT
    }
  }
  attr {
    key: "_output_shapes"
    value {
      list {
        shape {
          dim {
            size: 8
          }
          dim {
            size: 256
          }
        }
        shape {
          dim {
            size: 8
          }
          dim {
            size: 256
          }
        }
        shape {
          dim {
            size: 8
          }
          dim {
            size: 256
          }
        }
        shape {
          dim {
            size: 8
          }
          dim {
            size: 256
          }
        }
        shape {
          dim {
            size: 8
          }
          dim {
            size: 256
          }
        }
        shape {
          dim {
            size: 8
          }
          dim {
            size: 256
          }
        }
        shape {
          dim {
            size: 8
          }
          dim {
            size: 256
          }
        }
      }
    }
  }
  attr {
    key: "cell_clip"
    value {
      f: -1.0
    }
  }
  attr {
    key: "forget_bias"
    value {
      f: 1.0
    }
  }
  attr {
    key: "use_peephole"
    value {
      b: false
    }
  }
}
node {
  name: "agent/unroll/Select_4"
  op: "Select"
  input: "agent/unroll/unstack_1:2"
  input: "agent/unroll/LSTMBlockCellZeroState/zeros"
  input: "agent/unroll/lstm_cell/LSTMBlockCell_1:1"
  device: "/job:learner/task:0/device:GPU:*"
  attr {
    key: "T"
    value {
      type: DT_FLOAT
    }
  }
  attr {
    key: "_output_shapes"
    value {
      list {
        shape {
          dim {
            size: 8
          }
          dim {
            size: 256
          }
        }
      }
    }
  }
}
node {
  name: "agent/unroll/Select_5"
  op: "Select"
  input: "agent/unroll/unstack_1:2"
  input: "agent/unroll/LSTMBlockCellZeroState/zeros_1"
  input: "agent/unroll/lstm_cell/LSTMBlockCell_1:6"
  device: "/job:learner/task:0/device:GPU:*"
  attr {
    key: "T"
    value {
      type: DT_FLOAT
    }
  }
  attr {
    key: "_output_shapes"
    value {
      list {
        shape {
          dim {
            size: 8
          }
          dim {
            size: 256
          }
        }
      }
    }
  }
}
node {
  name: "agent/unroll/lstm_cell/zeros_2"
  op: "Const"
  device: "/job:learner/task:0/device:GPU:*"
  attr {
    key: "_output_shapes"
    value {
      list {
        shape {
          dim {
            size: 256
          }
        }
      }
    }
  }
  attr {
    key: "dtype"
    value {
      type: DT_FLOAT
    }
  }
  attr {
    key: "value"
    value {
      tensor {
        dtype: DT_FLOAT
        tensor_shape {
          dim {
            size: 256
          }
        }
        float_val: 0.0
      }
    }
  }
}
node {
  name: "agent/unroll/lstm_cell/LSTMBlockCell_2"
  op: "LSTMBlockCell"
  input: "agent/unroll/unstack:2"
  input: "agent/unroll/Select_4"
  input: "agent/unroll/Select_5"
  input: "agent/lstm_cell/kernel/read"
  input: "agent/unroll/lstm_cell/zeros_2"
  input: "agent/unroll/lstm_cell/zeros_2"
  input: "agent/unroll/lstm_cell/zeros_2"
  input: "agent/lstm_cell/bias/read"
  device: "/job:learner/task:0/device:GPU:*"
  attr {
    key: "T"
    value {
      type: DT_FLOAT
    }
  }
  attr {
    key: "_output_shapes"
    value {
      list {
        shape {
          dim {
            size: 8
          }
          dim {
            size: 256
          }
        }
        shape {
          dim {
            size: 8
          }
          dim {
            size: 256
          }
        }
        shape {
          dim {
            size: 8
          }
          dim {
            size: 256
          }
        }
        shape {
          dim {
            size: 8
          }
          dim {
            size: 256
          }
        }
        shape {
          dim {
            size: 8
          }
          dim {
            size: 256
          }
        }
        shape {
          dim {
            size: 8
          }
          dim {
            size: 256
          }
        }
        shape {
          dim {
            size: 8
          }
          dim {
            size: 256
          }
        }
      }
    }
  }
  attr {
    key: "cell_clip"
    value {
      f: -1.0
    }
  }
  attr {
    key: "forget_bias"
    value {
      f: 1.0
    }
  }
  attr {
    key: "use_peephole"
    value {
      b: false
    }
  }
}
node {
  name: "agent/unroll/Select_6"
  op: "Select"
  input: "agent/unroll/unstack_1:3"
  input: "agent/unroll/LSTMBlockCellZeroState/zeros"
  input: "agent/unroll/lstm_cell/LSTMBlockCell_2:1"
  device: "/job:learner/task:0/device:GPU:*"
  attr {
    key: "T"
    value {
      type: DT_FLOAT
    }
  }
  attr {
    key: "_output_shapes"
    value {
      list {
        shape {
          dim {
            size: 8
          }
          dim {
            size: 256
          }
        }
      }
    }
  }
}
node {
  name: "agent/unroll/Select_7"
  op: "Select"
  input: "agent/unroll/unstack_1:3"
  input: "agent/unroll/LSTMBlockCellZeroState/zeros_1"
  input: "agent/unroll/lstm_cell/LSTMBlockCell_2:6"
  device: "/job:learner/task:0/device:GPU:*"
  attr {
    key: "T"
    value {
      type: DT_FLOAT
    }
  }
  attr {
    key: "_output_shapes"
    value {
      list {
        shape {
          dim {
            size: 8
          }
          dim {
            size: 256
          }
        }
      }
    }
  }
}
node {
  name: "agent/unroll/lstm_cell/zeros_3"
  op: "Const"
  device: "/job:learner/task:0/device:GPU:*"
  attr {
    key: "_output_shapes"
    value {
      list {
        shape {
          dim {
            size: 256
          }
        }
      }
    }
  }
  attr {
    key: "dtype"
    value {
      type: DT_FLOAT
    }
  }
  attr {
    key: "value"
    value {
      tensor {
        dtype: DT_FLOAT
        tensor_shape {
          dim {
            size: 256
          }
        }
        float_val: 0.0
      }
    }
  }
}
node {
  name: "agent/unroll/lstm_cell/LSTMBlockCell_3"
  op: "LSTMBlockCell"
  input: "agent/unroll/unstack:3"
  input: "agent/unroll/Select_6"
  input: "agent/unroll/Select_7"
  input: "agent/lstm_cell/kernel/read"
  input: "agent/unroll/lstm_cell/zeros_3"
  input: "agent/unroll/lstm_cell/zeros_3"
  input: "agent/unroll/lstm_cell/zeros_3"
  input: "agent/lstm_cell/bias/read"
  device: "/job:learner/task:0/device:GPU:*"
  attr {
    key: "T"
    value {
      type: DT_FLOAT
    }
  }
  attr {
    key: "_output_shapes"
    value {
      list {
        shape {
          dim {
            size: 8
          }
          dim {
            size: 256
          }
        }
        shape {
          dim {
            size: 8
          }
          dim {
            size: 256
          }
        }
        shape {
          dim {
            size: 8
          }
          dim {
            size: 256
          }
        }
        shape {
          dim {
            size: 8
          }
          dim {
            size: 256
          }
        }
        shape {
          dim {
            size: 8
          }
          dim {
            size: 256
          }
        }
        shape {
          dim {
            size: 8
          }
          dim {
            size: 256
          }
        }
        shape {
          dim {
            size: 8
          }
          dim {
            size: 256
          }
        }
      }
    }
  }
  attr {
    key: "cell_clip"
    value {
      f: -1.0
    }
  }
  attr {
    key: "forget_bias"
    value {
      f: 1.0
    }
  }
  attr {
    key: "use_peephole"
    value {
      b: false
    }
  }
}
node {
  name: "agent/unroll/Select_8"
  op: "Select"
  input: "agent/unroll/unstack_1:4"
  input: "agent/unroll/LSTMBlockCellZeroState/zeros"
  input: "agent/unroll/lstm_cell/LSTMBlockCell_3:1"
  device: "/job:learner/task:0/device:GPU:*"
  attr {
    key: "T"
    value {
      type: DT_FLOAT
    }
  }
  attr {
    key: "_output_shapes"
    value {
      list {
        shape {
          dim {
            size: 8
          }
          dim {
            size: 256
          }
        }
      }
    }
  }
}
node {
  name: "agent/unroll/Select_9"
  op: "Select"
  input: "agent/unroll/unstack_1:4"
  input: "agent/unroll/LSTMBlockCellZeroState/zeros_1"
  input: "agent/unroll/lstm_cell/LSTMBlockCell_3:6"
  device: "/job:learner/task:0/device:GPU:*"
  attr {
    key: "T"
    value {
      type: DT_FLOAT
    }
  }
  attr {
    key: "_output_shapes"
    value {
      list {
        shape {
          dim {
            size: 8
          }
          dim {
            size: 256
          }
        }
      }
    }
  }
}
node {
  name: "agent/unroll/lstm_cell/zeros_4"
  op: "Const"
  device: "/job:learner/task:0/device:GPU:*"
  attr {
    key: "_output_shapes"
    value {
      list {
        shape {
          dim {
            size: 256
          }
        }
      }
    }
  }
  attr {
    key: "dtype"
    value {
      type: DT_FLOAT
    }
  }
  attr {
    key: "value"
    value {
      tensor {
        dtype: DT_FLOAT
        tensor_shape {
          dim {
            size: 256
          }
        }
        float_val: 0.0
      }
    }
  }
}
node {
  name: "agent/unroll/lstm_cell/LSTMBlockCell_4"
  op: "LSTMBlockCell"
  input: "agent/unroll/unstack:4"
  input: "agent/unroll/Select_8"
  input: "agent/unroll/Select_9"
  input: "agent/lstm_cell/kernel/read"
  input: "agent/unroll/lstm_cell/zeros_4"
  input: "agent/unroll/lstm_cell/zeros_4"
  input: "agent/unroll/lstm_cell/zeros_4"
  input: "agent/lstm_cell/bias/read"
  device: "/job:learner/task:0/device:GPU:*"
  attr {
    key: "T"
    value {
      type: DT_FLOAT
    }
  }
  attr {
    key: "_output_shapes"
    value {
      list {
        shape {
          dim {
            size: 8
          }
          dim {
            size: 256
          }
        }
        shape {
          dim {
            size: 8
          }
          dim {
            size: 256
          }
        }
        shape {
          dim {
            size: 8
          }
          dim {
            size: 256
          }
        }
        shape {
          dim {
            size: 8
          }
          dim {
            size: 256
          }
        }
        shape {
          dim {
            size: 8
          }
          dim {
            size: 256
          }
        }
        shape {
          dim {
            size: 8
          }
          dim {
            size: 256
          }
        }
        shape {
          dim {
            size: 8
          }
          dim {
            size: 256
          }
        }
      }
    }
  }
  attr {
    key: "cell_clip"
    value {
      f: -1.0
    }
  }
  attr {
    key: "forget_bias"
    value {
      f: 1.0
    }
  }
  attr {
    key: "use_peephole"
    value {
      b: false
    }
  }
}
node {
  name: "agent/unroll/Select_10"
  op: "Select"
  input: "agent/unroll/unstack_1:5"
  input: "agent/unroll/LSTMBlockCellZeroState/zeros"
  input: "agent/unroll/lstm_cell/LSTMBlockCell_4:1"
  device: "/job:learner/task:0/device:GPU:*"
  attr {
    key: "T"
    value {
      type: DT_FLOAT
    }
  }
  attr {
    key: "_output_shapes"
    value {
      list {
        shape {
          dim {
            size: 8
          }
          dim {
            size: 256
          }
        }
      }
    }
  }
}
node {
  name: "agent/unroll/Select_11"
  op: "Select"
  input: "agent/unroll/unstack_1:5"
  input: "agent/unroll/LSTMBlockCellZeroState/zeros_1"
  input: "agent/unroll/lstm_cell/LSTMBlockCell_4:6"
  device: "/job:learner/task:0/device:GPU:*"
  attr {
    key: "T"
    value {
      type: DT_FLOAT
    }
  }
  attr {
    key: "_output_shapes"
    value {
      list {
        shape {
          dim {
            size: 8
          }
          dim {
            size: 256
          }
        }
      }
    }
  }
}
node {
  name: "agent/unroll/lstm_cell/zeros_5"
  op: "Const"
  device: "/job:learner/task:0/device:GPU:*"
  attr {
    key: "_output_shapes"
    value {
      list {
        shape {
          dim {
            size: 256
          }
        }
      }
    }
  }
  attr {
    key: "dtype"
    value {
      type: DT_FLOAT
    }
  }
  attr {
    key: "value"
    value {
      tensor {
        dtype: DT_FLOAT
        tensor_shape {
          dim {
            size: 256
          }
        }
        float_val: 0.0
      }
    }
  }
}
node {
  name: "agent/unroll/lstm_cell/LSTMBlockCell_5"
  op: "LSTMBlockCell"
  input: "agent/unroll/unstack:5"
  input: "agent/unroll/Select_10"
  input: "agent/unroll/Select_11"
  input: "agent/lstm_cell/kernel/read"
  input: "agent/unroll/lstm_cell/zeros_5"
  input: "agent/unroll/lstm_cell/zeros_5"
  input: "agent/unroll/lstm_cell/zeros_5"
  input: "agent/lstm_cell/bias/read"
  device: "/job:learner/task:0/device:GPU:*"
  attr {
    key: "T"
    value {
      type: DT_FLOAT
    }
  }
  attr {
    key: "_output_shapes"
    value {
      list {
        shape {
          dim {
            size: 8
          }
          dim {
            size: 256
          }
        }
        shape {
          dim {
            size: 8
          }
          dim {
            size: 256
          }
        }
        shape {
          dim {
            size: 8
          }
          dim {
            size: 256
          }
        }
        shape {
          dim {
            size: 8
          }
          dim {
            size: 256
          }
        }
        shape {
          dim {
            size: 8
          }
          dim {
            size: 256
          }
        }
        shape {
          dim {
            size: 8
          }
          dim {
            size: 256
          }
        }
        shape {
          dim {
            size: 8
          }
          dim {
            size: 256
          }
        }
      }
    }
  }
  attr {
    key: "cell_clip"
    value {
      f: -1.0
    }
  }
  attr {
    key: "forget_bias"
    value {
      f: 1.0
    }
  }
  attr {
    key: "use_peephole"
    value {
      b: false
    }
  }
}
node {
  name: "agent/unroll/Select_12"
  op: "Select"
  input: "agent/unroll/unstack_1:6"
  input: "agent/unroll/LSTMBlockCellZeroState/zeros"
  input: "agent/unroll/lstm_cell/LSTMBlockCell_5:1"
  device: "/job:learner/task:0/device:GPU:*"
  attr {
    key: "T"
    value {
      type: DT_FLOAT
    }
  }
  attr {
    key: "_output_shapes"
    value {
      list {
        shape {
          dim {
            size: 8
          }
          dim {
            size: 256
          }
        }
      }
    }
  }
}
node {
  name: "agent/unroll/Select_13"
  op: "Select"
  input: "agent/unroll/unstack_1:6"
  input: "agent/unroll/LSTMBlockCellZeroState/zeros_1"
  input: "agent/unroll/lstm_cell/LSTMBlockCell_5:6"
  device: "/job:learner/task:0/device:GPU:*"
  attr {
    key: "T"
    value {
      type: DT_FLOAT
    }
  }
  attr {
    key: "_output_shapes"
    value {
      list {
        shape {
          dim {
            size: 8
          }
          dim {
            size: 256
          }
        }
      }
    }
  }
}
node {
  name: "agent/unroll/lstm_cell/zeros_6"
  op: "Const"
  device: "/job:learner/task:0/device:GPU:*"
  attr {
    key: "_output_shapes"
    value {
      list {
        shape {
          dim {
            size: 256
          }
        }
      }
    }
  }
  attr {
    key: "dtype"
    value {
      type: DT_FLOAT
    }
  }
  attr {
    key: "value"
    value {
      tensor {
        dtype: DT_FLOAT
        tensor_shape {
          dim {
            size: 256
          }
        }
        float_val: 0.0
      }
    }
  }
}
node {
  name: "agent/unroll/lstm_cell/LSTMBlockCell_6"
  op: "LSTMBlockCell"
  input: "agent/unroll/unstack:6"
  input: "agent/unroll/Select_12"
  input: "agent/unroll/Select_13"
  input: "agent/lstm_cell/kernel/read"
  input: "agent/unroll/lstm_cell/zeros_6"
  input: "agent/unroll/lstm_cell/zeros_6"
  input: "agent/unroll/lstm_cell/zeros_6"
  input: "agent/lstm_cell/bias/read"
  device: "/job:learner/task:0/device:GPU:*"
  attr {
    key: "T"
    value {
      type: DT_FLOAT
    }
  }
  attr {
    key: "_output_shapes"
    value {
      list {
        shape {
          dim {
            size: 8
          }
          dim {
            size: 256
          }
        }
        shape {
          dim {
            size: 8
          }
          dim {
            size: 256
          }
        }
        shape {
          dim {
            size: 8
          }
          dim {
            size: 256
          }
        }
        shape {
          dim {
            size: 8
          }
          dim {
            size: 256
          }
        }
        shape {
          dim {
            size: 8
          }
          dim {
            size: 256
          }
        }
        shape {
          dim {
            size: 8
          }
          dim {
            size: 256
          }
        }
        shape {
          dim {
            size: 8
          }
          dim {
            size: 256
          }
        }
      }
    }
  }
  attr {
    key: "cell_clip"
    value {
      f: -1.0
    }
  }
  attr {
    key: "forget_bias"
    value {
      f: 1.0
    }
  }
  attr {
    key: "use_peephole"
    value {
      b: false
    }
  }
}
node {
  name: "agent/unroll/Select_14"
  op: "Select"
  input: "agent/unroll/unstack_1:7"
  input: "agent/unroll/LSTMBlockCellZeroState/zeros"
  input: "agent/unroll/lstm_cell/LSTMBlockCell_6:1"
  device: "/job:learner/task:0/device:GPU:*"
  attr {
    key: "T"
    value {
      type: DT_FLOAT
    }
  }
  attr {
    key: "_output_shapes"
    value {
      list {
        shape {
          dim {
            size: 8
          }
          dim {
            size: 256
          }
        }
      }
    }
  }
}
node {
  name: "agent/unroll/Select_15"
  op: "Select"
  input: "agent/unroll/unstack_1:7"
  input: "agent/unroll/LSTMBlockCellZeroState/zeros_1"
  input: "agent/unroll/lstm_cell/LSTMBlockCell_6:6"
  device: "/job:learner/task:0/device:GPU:*"
  attr {
    key: "T"
    value {
      type: DT_FLOAT
    }
  }
  attr {
    key: "_output_shapes"
    value {
      list {
        shape {
          dim {
            size: 8
          }
          dim {
            size: 256
          }
        }
      }
    }
  }
}
node {
  name: "agent/unroll/lstm_cell/zeros_7"
  op: "Const"
  device: "/job:learner/task:0/device:GPU:*"
  attr {
    key: "_output_shapes"
    value {
      list {
        shape {
          dim {
            size: 256
          }
        }
      }
    }
  }
  attr {
    key: "dtype"
    value {
      type: DT_FLOAT
    }
  }
  attr {
    key: "value"
    value {
      tensor {
        dtype: DT_FLOAT
        tensor_shape {
          dim {
            size: 256
          }
        }
        float_val: 0.0
      }
    }
  }
}
node {
  name: "agent/unroll/lstm_cell/LSTMBlockCell_7"
  op: "LSTMBlockCell"
  input: "agent/unroll/unstack:7"
  input: "agent/unroll/Select_14"
  input: "agent/unroll/Select_15"
  input: "agent/lstm_cell/kernel/read"
  input: "agent/unroll/lstm_cell/zeros_7"
  input: "agent/unroll/lstm_cell/zeros_7"
  input: "agent/unroll/lstm_cell/zeros_7"
  input: "agent/lstm_cell/bias/read"
  device: "/job:learner/task:0/device:GPU:*"
  attr {
    key: "T"
    value {
      type: DT_FLOAT
    }
  }
  attr {
    key: "_output_shapes"
    value {
      list {
        shape {
          dim {
            size: 8
          }
          dim {
            size: 256
          }
        }
        shape {
          dim {
            size: 8
          }
          dim {
            size: 256
          }
        }
        shape {
          dim {
            size: 8
          }
          dim {
            size: 256
          }
        }
        shape {
          dim {
            size: 8
          }
          dim {
            size: 256
          }
        }
        shape {
          dim {
            size: 8
          }
          dim {
            size: 256
          }
        }
        shape {
          dim {
            size: 8
          }
          dim {
            size: 256
          }
        }
        shape {
          dim {
            size: 8
          }
          dim {
            size: 256
          }
        }
      }
    }
  }
  attr {
    key: "cell_clip"
    value {
      f: -1.0
    }
  }
  attr {
    key: "forget_bias"
    value {
      f: 1.0
    }
  }
  attr {
    key: "use_peephole"
    value {
      b: false
    }
  }
}
node {
  name: "agent/unroll/Select_16"
  op: "Select"
  input: "agent/unroll/unstack_1:8"
  input: "agent/unroll/LSTMBlockCellZeroState/zeros"
  input: "agent/unroll/lstm_cell/LSTMBlockCell_7:1"
  device: "/job:learner/task:0/device:GPU:*"
  attr {
    key: "T"
    value {
      type: DT_FLOAT
    }
  }
  attr {
    key: "_output_shapes"
    value {
      list {
        shape {
          dim {
            size: 8
          }
          dim {
            size: 256
          }
        }
      }
    }
  }
}
node {
  name: "agent/unroll/Select_17"
  op: "Select"
  input: "agent/unroll/unstack_1:8"
  input: "agent/unroll/LSTMBlockCellZeroState/zeros_1"
  input: "agent/unroll/lstm_cell/LSTMBlockCell_7:6"
  device: "/job:learner/task:0/device:GPU:*"
  attr {
    key: "T"
    value {
      type: DT_FLOAT
    }
  }
  attr {
    key: "_output_shapes"
    value {
      list {
        shape {
          dim {
            size: 8
          }
          dim {
            size: 256
          }
        }
      }
    }
  }
}
node {
  name: "agent/unroll/lstm_cell/zeros_8"
  op: "Const"
  device: "/job:learner/task:0/device:GPU:*"
  attr {
    key: "_output_shapes"
    value {
      list {
        shape {
          dim {
            size: 256
          }
        }
      }
    }
  }
  attr {
    key: "dtype"
    value {
      type: DT_FLOAT
    }
  }
  attr {
    key: "value"
    value {
      tensor {
        dtype: DT_FLOAT
        tensor_shape {
          dim {
            size: 256
          }
        }
        float_val: 0.0
      }
    }
  }
}
node {
  name: "agent/unroll/lstm_cell/LSTMBlockCell_8"
  op: "LSTMBlockCell"
  input: "agent/unroll/unstack:8"
  input: "agent/unroll/Select_16"
  input: "agent/unroll/Select_17"
  input: "agent/lstm_cell/kernel/read"
  input: "agent/unroll/lstm_cell/zeros_8"
  input: "agent/unroll/lstm_cell/zeros_8"
  input: "agent/unroll/lstm_cell/zeros_8"
  input: "agent/lstm_cell/bias/read"
  device: "/job:learner/task:0/device:GPU:*"
  attr {
    key: "T"
    value {
      type: DT_FLOAT
    }
  }
  attr {
    key: "_output_shapes"
    value {
      list {
        shape {
          dim {
            size: 8
          }
          dim {
            size: 256
          }
        }
        shape {
          dim {
            size: 8
          }
          dim {
            size: 256
          }
        }
        shape {
          dim {
            size: 8
          }
          dim {
            size: 256
          }
        }
        shape {
          dim {
            size: 8
          }
          dim {
            size: 256
          }
        }
        shape {
          dim {
            size: 8
          }
          dim {
            size: 256
          }
        }
        shape {
          dim {
            size: 8
          }
          dim {
            size: 256
          }
        }
        shape {
          dim {
            size: 8
          }
          dim {
            size: 256
          }
        }
      }
    }
  }
  attr {
    key: "cell_clip"
    value {
      f: -1.0
    }
  }
  attr {
    key: "forget_bias"
    value {
      f: 1.0
    }
  }
  attr {
    key: "use_peephole"
    value {
      b: false
    }
  }
}
node {
  name: "agent/unroll/Select_18"
  op: "Select"
  input: "agent/unroll/unstack_1:9"
  input: "agent/unroll/LSTMBlockCellZeroState/zeros"
  input: "agent/unroll/lstm_cell/LSTMBlockCell_8:1"
  device: "/job:learner/task:0/device:GPU:*"
  attr {
    key: "T"
    value {
      type: DT_FLOAT
    }
  }
  attr {
    key: "_output_shapes"
    value {
      list {
        shape {
          dim {
            size: 8
          }
          dim {
            size: 256
          }
        }
      }
    }
  }
}
node {
  name: "agent/unroll/Select_19"
  op: "Select"
  input: "agent/unroll/unstack_1:9"
  input: "agent/unroll/LSTMBlockCellZeroState/zeros_1"
  input: "agent/unroll/lstm_cell/LSTMBlockCell_8:6"
  device: "/job:learner/task:0/device:GPU:*"
  attr {
    key: "T"
    value {
      type: DT_FLOAT
    }
  }
  attr {
    key: "_output_shapes"
    value {
      list {
        shape {
          dim {
            size: 8
          }
          dim {
            size: 256
          }
        }
      }
    }
  }
}
node {
  name: "agent/unroll/lstm_cell/zeros_9"
  op: "Const"
  device: "/job:learner/task:0/device:GPU:*"
  attr {
    key: "_output_shapes"
    value {
      list {
        shape {
          dim {
            size: 256
          }
        }
      }
    }
  }
  attr {
    key: "dtype"
    value {
      type: DT_FLOAT
    }
  }
  attr {
    key: "value"
    value {
      tensor {
        dtype: DT_FLOAT
        tensor_shape {
          dim {
            size: 256
          }
        }
        float_val: 0.0
      }
    }
  }
}
node {
  name: "agent/unroll/lstm_cell/LSTMBlockCell_9"
  op: "LSTMBlockCell"
  input: "agent/unroll/unstack:9"
  input: "agent/unroll/Select_18"
  input: "agent/unroll/Select_19"
  input: "agent/lstm_cell/kernel/read"
  input: "agent/unroll/lstm_cell/zeros_9"
  input: "agent/unroll/lstm_cell/zeros_9"
  input: "agent/unroll/lstm_cell/zeros_9"
  input: "agent/lstm_cell/bias/read"
  device: "/job:learner/task:0/device:GPU:*"
  attr {
    key: "T"
    value {
      type: DT_FLOAT
    }
  }
  attr {
    key: "_output_shapes"
    value {
      list {
        shape {
          dim {
            size: 8
          }
          dim {
            size: 256
          }
        }
        shape {
          dim {
            size: 8
          }
          dim {
            size: 256
          }
        }
        shape {
          dim {
            size: 8
          }
          dim {
            size: 256
          }
        }
        shape {
          dim {
            size: 8
          }
          dim {
            size: 256
          }
        }
        shape {
          dim {
            size: 8
          }
…
        shape {
        }
      }
    }
  }
  attr {
    key: "dtype"
    value {
      type: DT_INT32
    }
  }
  attr {
    key: "value"
    value {
      tensor {
        dtype: DT_INT32
        tensor_shape {
        }
        int_val: 1
      }
    }
  }
}
node {
  name: "save/ShardedFilename/shard"
  op: "Const"
  device: "/job:learner/task:0/device:CPU:0"
  attr {
    key: "_output_shapes"
    value {
      list {
        shape {
        }
      }
    }
  }
  attr {
    key: "dtype"
    value {
      type: DT_INT32
    }
  }
  attr {
    key: "value"
    value {
      tensor {
        dtype: DT_INT32
        tensor_shape {
        }
        int_val: 0
      }
    }
  }
}
node {
  name: "save/ShardedFilename"
  op: "ShardedFilename"
  input: "save/StringJoin"
  input: "save/ShardedFilename/shard"
  input: "save/num_shards"
  device: "/job:learner/task:0/device:CPU:0"
  attr {
    key: "_output_shapes"
    value {
      list {
        shape {
        }
      }
    }
  }
}
node {
  name: "save/SaveV2/tensor_names"
  op: "Const"
  device: "/job:learner/task:0/device:CPU:0"
  attr {
    key: "_output_shapes"
    value {
      list {
        shape {
          dim {
            size: 43
          }
        }
      }
    }
  }
  attr {
    key: "dtype"
    value {
      type: DT_STRING
    }
  }
  attr {
    key: "value"
    value {
      tensor {
        dtype: DT_STRING
        tensor_shape {
          dim {
            size: 43
          }
        }
        string_val: "agent/batch_apply/convnet/conv_2d/b"
        string_val: "agent/batch_apply/convnet/conv_2d/b/RMSProp"
        string_val: "agent/batch_apply/convnet/conv_2d/b/RMSProp_1"
        string_val: "agent/batch_apply/convnet/conv_2d/w"
        string_val: "agent/batch_apply/convnet/conv_2d/w/RMSProp"
        string_val: "agent/batch_apply/convnet/conv_2d/w/RMSProp_1"
        string_val: "agent/batch_apply/convnet/conv_2d_1/b"
        string_val: "agent/batch_apply/convnet/conv_2d_1/b/RMSProp"
        string_val: "agent/batch_apply/convnet/conv_2d_1/b/RMSProp_1"
        string_val: "agent/batch_apply/convnet/conv_2d_1/w"
        string_val: "agent/batch_apply/convnet/conv_2d_1/w/RMSProp"
        string_val: "agent/batch_apply/convnet/conv_2d_1/w/RMSProp_1"
        string_val: "agent/batch_apply/convnet/conv_2d_2/b"
        string_val: "agent/batch_apply/convnet/conv_2d_2/b/RMSProp"
        string_val: "agent/batch_apply/convnet/conv_2d_2/b/RMSProp_1"
        string_val: "agent/batch_apply/convnet/conv_2d_2/w"
        string_val: "agent/batch_apply/convnet/conv_2d_2/w/RMSProp"
        string_val: "agent/batch_apply/convnet/conv_2d_2/w/RMSProp_1"
        string_val: "agent/batch_apply/linear/b"
        string_val: "agent/batch_apply/linear/b/RMSProp"
        string_val: "agent/batch_apply/linear/b/RMSProp_1"
        string_val: "agent/batch_apply/linear/w"
        string_val: "agent/batch_apply/linear/w/RMSProp"
        string_val: "agent/batch_apply/linear/w/RMSProp_1"
        string_val: "agent/batch_apply_1/baseline/b"
        string_val: "agent/batch_apply_1/baseline/b/RMSProp"
        string_val: "agent/batch_apply_1/baseline/b/RMSProp_1"
        string_val: "agent/batch_apply_1/baseline/w"
        string_val: "agent/batch_apply_1/baseline/w/RMSProp"
        string_val: "agent/batch_apply_1/baseline/w/RMSProp_1"
        string_val: "agent/batch_apply_1/policy_logits/b"
        string_val: "agent/batch_apply_1/policy_logits/b/RMSProp"
        string_val: "agent/batch_apply_1/policy_logits/b/RMSProp_1"
        string_val: "agent/batch_apply_1/policy_logits/w"
        string_val: "agent/batch_apply_1/policy_logits/w/RMSProp"
        string_val: "agent/batch_apply_1/policy_logits/w/RMSProp_1"
        string_val: "agent/lstm_cell/bias"
        string_val: "agent/lstm_cell/bias/RMSProp"
        string_val: "agent/lstm_cell/bias/RMSProp_1"
        string_val: "agent/lstm_cell/kernel"
        string_val: "agent/lstm_cell/kernel/RMSProp"
        string_val: "agent/lstm_cell/kernel/RMSProp_1"
        string_val: "num_environment_frames"
      }
    }
  }
}
node {
  name: "save/SaveV2/shape_and_slices"
  op: "Const"
  device: "/job:learner/task:0/device:CPU:0"
  attr {
    key: "_output_shapes"
    value {
      list {
        shape {
          dim {
            size: 43
          }
        }
      }
    }
  }
  attr {
    key: "dtype"
    value {
      type: DT_STRING
    }
  }
  attr {
    key: "value"
    value {
      tensor {
        dtype: DT_STRING
        tensor_shape {
          dim {
            size: 43
          }
        }
        string_val: ""
        string_val: ""
        string_val: ""
        string_val: ""
        string_val: ""
        string_val: ""
        string_val: ""
        string_val: ""
        string_val: ""
        string_val: ""
        string_val: ""
        string_val: ""
        string_val: ""
        string_val: ""
        string_val: ""
        string_val: ""
        string_val: ""
        string_val: ""
        string_val: ""
        string_val: ""
        string_val: ""
        string_val: ""
        string_val: ""
        string_val: ""
        string_val: ""
        string_val: ""
        string_val: ""
        string_val: ""
        string_val: ""
        string_val: ""
        string_val: ""
        string_val: ""
        string_val: ""
        string_val: ""
        string_val: ""
        string_val: ""
        string_val: ""
        string_val: ""
        string_val: ""
        string_val: ""
        string_val: ""
        string_val: ""
        string_val: ""
      }
    }
  }
}
node {
  name: "save/SaveV2"
  op: "SaveV2"
  input: "save/ShardedFilename"
  input: "save/SaveV2/tensor_names"
  input: "save/SaveV2/shape_and_slices"
  input: "agent/batch_apply/convnet/conv_2d/b"
  input: "agent/batch_apply/convnet/conv_2d/b/RMSProp"
  input: "agent/batch_apply/convnet/conv_2d/b/RMSProp_1"
  input: "agent/batch_apply/convnet/conv_2d/w"
  input: "agent/batch_apply/convnet/conv_2d/w/RMSProp"
  input: "agent/batch_apply/convnet/conv_2d/w/RMSProp_1"
  input: "agent/batch_apply/convnet/conv_2d_1/b"
  input: "agent/batch_apply/convnet/conv_2d_1/b/RMSProp"
  input: "agent/batch_apply/convnet/conv_2d_1/b/RMSProp_1"
  input: "agent/batch_apply/convnet/conv_2d_1/w"
  input: "agent/batch_apply/convnet/conv_2d_1/w/RMSProp"
  input: "agent/batch_apply/convnet/conv_2d_1/w/RMSProp_1"
  input: "agent/batch_apply/convnet/conv_2d_2/b"
  input: "agent/batch_apply/convnet/conv_2d_2/b/RMSProp"
  input: "agent/batch_apply/convnet/conv_2d_2/b/RMSProp_1"
  input: "agent/batch_apply/convnet/conv_2d_2/w"
  input: "agent/batch_apply/convnet/conv_2d_2/w/RMSProp"
  input: "agent/batch_apply/convnet/conv_2d_2/w/RMSProp_1"
  input: "agent/batch_apply/linear/b"
  input: "agent/batch_apply/linear/b/RMSProp"
  input: "agent/batch_apply/linear/b/RMSProp_1"
  input: "agent/batch_apply/linear/w"
  input: "agent/batch_apply/linear/w/RMSProp"
  input: "agent/batch_apply/linear/w/RMSProp_1"
  input: "agent/batch_apply_1/baseline/b"
  input: "agent/batch_apply_1/baseline/b/RMSProp"
  input: "agent/batch_apply_1/baseline/b/RMSProp_1"
  input: "agent/batch_apply_1/baseline/w"
  input: "agent/batch_apply_1/baseline/w/RMSProp"
  input: "agent/batch_apply_1/baseline/w/RMSProp_1"
  input: "agent/batch_apply_1/policy_logits/b"
  input: "agent/batch_apply_1/policy_logits/b/RMSProp"
  input: "agent/batch_apply_1/policy_logits/b/RMSProp_1"
  input: "agent/batch_apply_1/policy_logits/w"
  input: "agent/batch_apply_1/policy_logits/w/RMSProp"
  input: "agent/batch_apply_1/policy_logits/w/RMSProp_1"
  input: "agent/lstm_cell/bias"
  input: "agent/lstm_cell/bias/RMSProp"
  input: "agent/lstm_cell/bias/RMSProp_1"
  input: "agent/lstm_cell/kernel"
  input: "agent/lstm_cell/kernel/RMSProp"
  input: "agent/lstm_cell/kernel/RMSProp_1"
  input: "num_environment_frames"
  device: "/job:learner/task:0/device:CPU:0"
  attr {
    key: "dtypes"
    value {
      list {
        type: DT_FLOAT
        type: DT_FLOAT
        type: DT_FLOAT
        type: DT_FLOAT
        type: DT_FLOAT
        type: DT_FLOAT
        type: DT_FLOAT
        type: DT_FLOAT
        type: DT_FLOAT
        type: DT_FLOAT
        type: DT_FLOAT
        type: DT_FLOAT
        type: DT_FLOAT
        type: DT_FLOAT
        type: DT_FLOAT
        type: DT_FLOAT
        type: DT_FLOAT
        type: DT_FLOAT
        type: DT_FLOAT
        type: DT_FLOAT
        type: DT_FLOAT
        type: DT_FLOAT
        type: DT_FLOAT
        type: DT_FLOAT
        type: DT_FLOAT
        type: DT_FLOAT
        type: DT_FLOAT
        type: DT_FLOAT
        type: DT_FLOAT
        type: DT_FLOAT
        type: DT_FLOAT
        type: DT_FLOAT
        type: DT_FLOAT
        type: DT_FLOAT
        type: DT_FLOAT
        type: DT_FLOAT
        type: DT_FLOAT
        type: DT_FLOAT
        type: DT_FLOAT
        type: DT_FLOAT
        type: DT_FLOAT
        type: DT_FLOAT
        type: DT_INT64
      }
    }
  }
}
node {
  name: "save/control_dependency"
  op: "Identity"
  input: "save/ShardedFilename"
  input: "^save/SaveV2"
  device: "/job:learner/task:0/device:CPU:0"
  attr {
    key: "T"
    value {
      type: DT_STRING
    }
  }
  attr {
    key: "_class"
    value {
      list {
        s: "loc:@save/ShardedFilename"
      }
    }
  }
  attr {
    key: "_output_shapes"
    value {
      list {
        shape {
        }
      }
    }
  }
}
node {
  name: "save/MergeV2Checkpoints/checkpoint_prefixes"
  op: "Pack"
  input: "save/ShardedFilename"
  input: "^save/control_dependency"
  device: "/job:learner/task:0/device:CPU:0"
  attr {
    key: "N"
    value {
      i: 1
    }
  }
  attr {
    key: "T"
    value {
      type: DT_STRING
    }
  }
  attr {
    key: "_output_shapes"
    value {
      list {
        shape {
          dim {
            size: 1
          }
        }
      }
    }
  }
  attr {
    key: "axis"
    value {
      i: 0
    }
  }
}
node {
  name: "save/MergeV2Checkpoints"
  op: "MergeV2Checkpoints"
  input: "save/MergeV2Checkpoints/checkpoint_prefixes"
  input: "save/Const"
  device: "/job:learner/task:0/device:CPU:0"
  attr {
    key: "delete_old_dirs"
    value {
      b: true
    }
  }
}
node {
  name: "save/Identity"
  op: "Identity"
  input: "save/Const"
  input: "^save/MergeV2Checkpoints"
  input: "^save/control_dependency"
  device: "/job:learner/task:0/device:CPU:0"
  attr {
    key: "T"
    value {
      type: DT_STRING
    }
  }
  attr {
    key: "_output_shapes"
    value {
      list {
        shape {
        }
      }
    }
  }
}
node {
  name: "save/RestoreV2/tensor_names"
  op: "Const"
  device: "/job:learner/task:0/device:CPU:0"
  attr {
    key: "_output_shapes"
    value {
      list {
        shape {
          dim {
            size: 43
          }
        }
      }
    }
  }
  attr {
    key: "dtype"
    value {
      type: DT_STRING
    }
  }
  attr {
    key: "value"
    value {
      tensor {
        dtype: DT_STRING
        tensor_shape {
          dim {
            size: 43
          }
        }
        string_val: "agent/batch_apply/convnet/conv_2d/b"
        string_val: "agent/batch_apply/convnet/conv_2d/b/RMSProp"
        string_val: "agent/batch_apply/convnet/conv_2d/b/RMSProp_1"
        string_val: "agent/batch_apply/convnet/conv_2d/w"
        string_val: "agent/batch_apply/convnet/conv_2d/w/RMSProp"
        string_val: "agent/batch_apply/convnet/conv_2d/w/RMSProp_1"
        string_val: "agent/batch_apply/convnet/conv_2d_1/b"
        string_val: "agent/batch_apply/convnet/conv_2d_1/b/RMSProp"
        string_val: "agent/batch_apply/convnet/conv_2d_1/b/RMSProp_1"
        string_val: "agent/batch_apply/convnet/conv_2d_1/w"
        string_val: "agent/batch_apply/convnet/conv_2d_1/w/RMSProp"
        string_val: "agent/batch_apply/convnet/conv_2d_1/w/RMSProp_1"
        string_val: "agent/batch_apply/convnet/conv_2d_2/b"
        string_val: "agent/batch_apply/convnet/conv_2d_2/b/RMSProp"
        string_val: "agent/batch_apply/convnet/conv_2d_2/b/RMSProp_1"
        string_val: "agent/batch_apply/convnet/conv_2d_2/w"
        string_val: "agent/batch_apply/convnet/conv_2d_2/w/RMSProp"
        string_val: "agent/batch_apply/convnet/conv_2d_2/w/RMSProp_1"
        string_val: "agent/batch_apply/linear/b"
        string_val: "agent/batch_apply/linear/b/RMSProp"
        string_val: "agent/batch_apply/linear/b/RMSProp_1"
        string_val: "agent/batch_apply/linear/w"
        string_val: "agent/batch_apply/linear/w/RMSProp"
        string_val: "agent/batch_apply/linear/w/RMSProp_1"
        string_val: "agent/batch_apply_1/baseline/b"
        string_val: "agent/batch_apply_1/baseline/b/RMSProp"
        string_val: "agent/batch_apply_1/baseline/b/RMSProp_1"
        string_val: "agent/batch_apply_1/baseline/w"
        string_val: "agent/batch_apply_1/baseline/w/RMSProp"
        string_val: "agent/batch_apply_1/baseline/w/RMSProp_1"
        string_val: "agent/batch_apply_1/policy_logits/b"
        string_val: "agent/batch_apply_1/policy_logits/b/RMSProp"
        string_val: "agent/batch_apply_1/policy_logits/b/RMSProp_1"
        string_val: "agent/batch_apply_1/policy_logits/w"
        string_val: "agent/batch_apply_1/policy_logits/w/RMSProp"
        string_val: "agent/batch_apply_1/policy_logits/w/RMSProp_1"
        string_val: "agent/lstm_cell/bias"
        string_val: "agent/lstm_cell/bias/RMSProp"
        string_val: "agent/lstm_cell/bias/RMSProp_1"
        string_val: "agent/lstm_cell/kernel"
        string_val: "agent/lstm_cell/kernel/RMSProp"
        string_val: "agent/lstm_cell/kernel/RMSProp_1"
        string_val: "num_environment_frames"
      }
    }
  }
}
node {
  name: "save/RestoreV2/shape_and_slices"
  op: "Const"
  device: "/job:learner/task:0/device:CPU:0"
  attr {
    key: "_output_shapes"
    value {
      list {
        shape {
          dim {
            size: 43
          }
        }
      }
    }
  }
  attr {
    key: "dtype"
    value {
      type: DT_STRING
    }
  }
  attr {
    key: "value"
    value {
      tensor {
        dtype: DT_STRING
        tensor_shape {
          dim {
            size: 43
          }
        }
        string_val: ""
        string_val: ""
        string_val: ""
        string_val: ""
        string_val: ""
        string_val: ""
        string_val: ""
        string_val: ""
        string_val: ""
        string_val: ""
        string_val: ""
        string_val: ""
        string_val: ""
        string_val: ""
        string_val: ""
        string_val: ""
        string_val: ""
        string_val: ""
        string_val: ""
        string_val: ""
        string_val: ""
        string_val: ""
        string_val: ""
        string_val: ""
        string_val: ""
        string_val: ""
        string_val: ""
        string_val: ""
        string_val: ""
        string_val: ""
        string_val: ""
        string_val: ""
        string_val: ""
        string_val: ""
        string_val: ""
        string_val: ""
        string_val: ""
        string_val: ""
        string_val: ""
        string_val: ""
        string_val: ""
        string_val: ""
        string_val: ""
      }
    }
  }
}
node {
  name: "save/RestoreV2"
  op: "RestoreV2"
  input: "save/Const"
  input: "save/RestoreV2/tensor_names"
  input: "save/RestoreV2/shape_and_slices"
  device: "/job:learner/task:0/device:CPU:0"
  attr {
    key: "_output_shapes"
    value {
      list {
        shape {
          unknown_rank: true
        }
        shape {
          unknown_rank: true
        }
        shape {
          unknown_rank: true
        }
        shape {
          unknown_rank: true
        }
        shape {
          unknown_rank: true
        }
        shape {
          unknown_rank: true
        }
        shape {
          unknown_rank: true
        }
        shape {
          unknown_rank: true
        }
        shape {
          unknown_rank: true
        }
        shape {
          unknown_rank: true
        }
        shape {
          unknown_rank: true
        }
        shape {
          unknown_rank: true
        }
        shape {
          unknown_rank: true
        }
        shape {
          unknown_rank: true
        }
        shape {
          unknown_rank: true
        }
        shape {
          unknown_rank: true
        }
        shape {
          unknown_rank: true
        }
        shape {
          unknown_rank: true
        }
        shape {
          unknown_rank: true
        }
        shape {
          unknown_rank: true
        }
        shape {
          unknown_rank: true
        }
        shape {
          unknown_rank: true
        }
        shape {
          unknown_rank: true
        }
        shape {
          unknown_rank: true
        }
        shape {
          unknown_rank: true
        }
        shape {
          unknown_rank: true
        }
        shape {
          unknown_rank: true
        }
        shape {
          unknown_rank: true
        }
        shape {
          unknown_rank: true
        }
        shape {
          unknown_rank: true
        }
        shape {
          unknown_rank: true
        }
        shape {
          unknown_rank: true
        }
        shape {
          unknown_rank: true
        }
        shape {
          unknown_rank: true
        }
        shape {
          unknown_rank: true
        }
        shape {
          unknown_rank: true
        }
        shape {
          unknown_rank: true
        }
        shape {
          unknown_rank: true
        }
        shape {
          unknown_rank: true
        }
        shape {
          unknown_rank: true
        }
        shape {
          unknown_rank: true
        }
        shape {
          unknown_rank: true
        }
        shape {
          unknown_rank: true
        }
      }
    }
  }
  attr {
    key: "dtypes"
    value {
      list {
        type: DT_FLOAT
        type: DT_FLOAT
        type: DT_FLOAT
        type: DT_FLOAT
        type: DT_FLOAT
        type: DT_FLOAT
        type: DT_FLOAT
        type: DT_FLOAT
        type: DT_FLOAT
        type: DT_FLOAT
        type: DT_FLOAT
        type: DT_FLOAT
        type: DT_FLOAT
        type: DT_FLOAT
        type: DT_FLOAT
        type: DT_FLOAT
        type: DT_FLOAT
        type: DT_FLOAT
        type: DT_FLOAT
        type: DT_FLOAT
        type: DT_FLOAT
        type: DT_FLOAT
        type: DT_FLOAT
        type: DT_FLOAT
        type: DT_FLOAT
        type: DT_FLOAT
        type: DT_FLOAT
        type: DT_FLOAT
        type: DT_FLOAT
        type: DT_FLOAT
        type: DT_FLOAT
        type: DT_FLOAT
        type: DT_FLOAT
        type: DT_FLOAT
        type: DT_FLOAT
        type: DT_FLOAT
        type: DT_FLOAT
        type: DT_FLOAT
        type: DT_FLOAT
        type: DT_FLOAT
        type: DT_FLOAT
        type: DT_FLOAT
        type: DT_INT64
      }
    }
  }
}
node {
  name: "save/Assign"
  op: "Assign"
  input: "agent/batch_apply/convnet/conv_2d/b"
  input: "save/RestoreV2"
  device: "/job:learner/task:0/device:CPU:*"
  attr {
    key: "T"
    value {
      type: DT_FLOAT
    }
  }
  attr {
    key: "_class"
    value {
      list {
        s: "loc:@agent/batch_apply/convnet/conv_2d/b"
      }
    }
  }
  attr {
    key: "_output_shapes"
    value {
      list {
        shape {
          dim {
            size: 16
          }
        }
      }
    }
  }
  attr {
    key: "use_locking"
    value {
      b: true
    }
  }
  attr {
    key: "validate_shape"
    value {
      b: true
    }
  }
}
node {
  name: "save/Assign_1"
  op: "Assign"
  input: "agent/batch_apply/convnet/conv_2d/b/RMSProp"
  input: "save/RestoreV2:1"
  device: "/job:learner/task:0/device:CPU:*"
  attr {
    key: "T"
    value {
      type: DT_FLOAT
    }
  }
  attr {
    key: "_class"
    value {
      list {
        s: "loc:@agent/batch_apply/convnet/conv_2d/b"
      }
    }
  }
  attr {
    key: "_output_shapes"
    value {
      list {
        shape {
          dim {
            size: 16
          }
        }
      }
    }
  }
  attr {
    key: "use_locking"
    value {
      b: true
    }
  }
  attr {
    key: "validate_shape"
    value {
      b: true
    }
  }
}
node {
  name: "save/Assign_2"
  op: "Assign"
  input: "agent/batch_apply/convnet/conv_2d/b/RMSProp_1"
  input: "save/RestoreV2:2"
  device: "/job:learner/task:0/device:CPU:*"
  attr {
    key: "T"
    value {
      type: DT_FLOAT
    }
  }
  attr {
    key: "_class"
    value {
      list {
        s: "loc:@agent/batch_apply/convnet/conv_2d/b"
      }
    }
  }
  attr {
    key: "_output_shapes"
    value {
      list {
        shape {
          dim {
            size: 16
          }
        }
      }
    }
  }
  attr {
    key: "use_locking"
    value {
      b: true
    }
  }
  attr {
    key: "validate_shape"
    value {
      b: true
    }
  }
}
node {
  name: "save/Assign_3"
  op: "Assign"
  input: "agent/batch_apply/convnet/conv_2d/w"
  input: "save/RestoreV2:3"
  device: "/job:learner/task:0/device:CPU:*"
  attr {
    key: "T"
    value {
      type: DT_FLOAT
    }
  }
  attr {
    key: "_class"
    value {
      list {
        s: "loc:@agent/batch_apply/convnet/conv_2d/w"
      }
    }
  }
  attr {
    key: "_output_shapes"
    value {
      list {
        shape {
          dim {
            size: 3
          }
          dim {
            size: 3
          }
          dim {
            size: 3
          }
          dim {
            size: 16
          }
        }
      }
    }
  }
  attr {
    key: "use_locking"
    value {
      b: true
    }
  }
  attr {
    key: "validate_shape"
    value {
      b: true
    }
  }
}
node {
  name: "save/Assign_4"
  op: "Assign"
  input: "agent/batch_apply/convnet/conv_2d/w/RMSProp"
  input: "save/RestoreV2:4"
  device: "/job:learner/task:0/device:CPU:*"
  attr {
    key: "T"
    value {
      type: DT_FLOAT
    }
  }
  attr {
    key: "_class"
    value {
      list {
        s: "loc:@agent/batch_apply/convnet/conv_2d/w"
      }
    }
  }
  attr {
    key: "_output_shapes"
    value {
      list {
        shape {
          dim {
            size: 3
          }
          dim {
            size: 3
          }
          dim {
            size: 3
          }
          dim {
            size: 16
          }
        }
      }
    }
  }
  attr {
    key: "use_locking"
    value {
      b: true
    }
  }
  attr {
    key: "validate_shape"
    value {
      b: true
    }
  }
}
node {
  name: "save/Assign_5"
  op: "Assign"
  input: "agent/batch_apply/convnet/conv_2d/w/RMSProp_1"
  input: "save/RestoreV2:5"
  device: "/job:learner/task:0/device:CPU:*"
  attr {
    key: "T"
    value {
      type: DT_FLOAT
    }
  }
  attr {
    key: "_class"
    value {
      list {
        s: "loc:@agent/batch_apply/convnet/conv_2d/w"
      }
    }
  }
  attr {
    key: "_output_shapes"
    value {
      list {
        shape {
          dim {
            size: 3
          }
          dim {
            size: 3
          }
          dim {
            size: 3
          }
          dim {
            size: 16
          }
        }
      }
    }
  }
  attr {
    key: "use_locking"
    value {
      b: true
    }
  }
  attr {
    key: "validate_shape"
    value {
      b: true
    }
  }
}
node {
  name: "save/Assign_6"
  op: "Assign"
  input: "agent/batch_apply/convnet/conv_2d_1/b"
  input: "save/RestoreV2:6"
  device: "/job:learner/task:0/device:CPU:*"
  attr {
    key: "T"
    value {
      type: DT_FLOAT
    }
  }
  attr {
    key: "_class"
    value {
      list {
        s: "loc:@agent/batch_apply/convnet/conv_2d_1/b"
      }
    }
  }
  attr {
    key: "_output_shapes"
    value {
      list {
        shape {
          dim {
            size: 32
          }
        }
      }
    }
  }
  attr {
    key: "use_locking"
    value {
      b: true
    }
  }
  attr {
    key: "validate_shape"
    value {
      b: true
    }
  }
}
node {
  name: "save/Assign_7"
  op: "Assign"
  input: "agent/batch_apply/convnet/conv_2d_1/b/RMSProp"
  input: "save/RestoreV2:7"
  device: "/job:learner/task:0/device:CPU:*"
  attr {
    key: "T"
    value {
      type: DT_FLOAT
    }
  }
  attr {
    key: "_class"
    value {
      list {
        s: "loc:@agent/batch_apply/convnet/conv_2d_1/b"
      }
    }
  }
  attr {
    key: "_output_shapes"
    value {
      list {
        shape {
          dim {
            size: 32
          }
        }
      }
    }
  }
  attr {
    key: "use_locking"
    value {
      b: true
    }
  }
  attr {
    key: "validate_shape"
    value {
      b: true
    }
  }
}
node {
  name: "save/Assign_8"
  op: "Assign"
  input: "agent/batch_apply/convnet/conv_2d_1/b/RMSProp_1"
  input: "save/RestoreV2:8"
  device: "/job:learner/task:0/device:CPU:*"
  attr {
    key: "T"
    value {
      type: DT_FLOAT
    }
  }
  attr {
    key: "_class"
    value {
      list {
        s: "loc:@agent/batch_apply/convnet/conv_2d_1/b"
      }
    }
  }
  attr {
    key: "_output_shapes"
    value {
      list {
        shape {
          dim {
            size: 32
          }
        }
      }
    }
  }
  attr {
    key: "use_locking"
    value {
      b: true
    }
  }
  attr {
    key: "validate_shape"
    value {
      b: true
    }
  }
}
node {
  name: "save/Assign_9"
  op: "Assign"
  input: "agent/batch_apply/convnet/conv_2d_1/w"
  input: "save/RestoreV2:9"
  device: "/job:learner/task:0/device:CPU:*"
  attr {
    key: "T"
    value {
      type: DT_FLOAT
    }
  }
  attr {
    key: "_class"
    value {
      list {
        s: "loc:@agent/batch_apply/convnet/conv_2d_1/w"
      }
    }
  }
  attr {
    key: "_output_shapes"
    value {
      list {
        shape {
          dim {
            size: 3
          }
          dim {
            size: 3
          }
          dim {
            size: 16
          }
          dim {
            size: 32
          }
        }
      }
    }
  }
  attr {
    key: "use_locking"
    value {
      b: true
    }
  }
  attr {
    key: "validate_shape"
    value {
      b: true
    }
  }
}
node {
  name: "save/Assign_10"
  op: "Assign"
  input: "agent/batch_apply/convnet/conv_2d_1/w/RMSProp"
  input: "save/RestoreV2:10"
  device: "/job:learner/task:0/device:CPU:*"
  attr {
    key: "T"
    value {
      type: DT_FLOAT
    }
  }
  attr {
    key: "_class"
    value {
      list {
        s: "loc:@agent/batch_apply/convnet/conv_2d_1/w"
      }
    }
  }
  attr {
    key: "_output_shapes"
    value {
      list {
        shape {
          dim {
            size: 3
          }
          dim {
            size: 3
          }
          dim {
            size: 16
          }
          dim {
            size: 32
          }
        }
      }
    }
  }
  attr {
    key: "use_locking"
    value {
      b: true
    }
  }
  attr {
    key: "validate_shape"
    value {
      b: true
    }
  }
}
node {
  name: "save/Assign_11"
  op: "Assign"
  input: "agent/batch_apply/convnet/conv_2d_1/w/RMSProp_1"
  input: "save/RestoreV2:11"
  device: "/job:learner/task:0/device:CPU:*"
  attr {
    key: "T"
    value {
      type: DT_FLOAT
    }
  }
  attr {
    key: "_class"
    value {
      list {
        s: "loc:@agent/batch_apply/convnet/conv_2d_1/w"
      }
    }
  }
  attr {
    key: "_output_shapes"
    value {
      list {
        shape {
          dim {
            size: 3
          }
          dim {
            size: 3
          }
          dim {
            size: 16
          }
          dim {
            size: 32
          }
        }
      }
    }
  }
  attr {
    key: "use_locking"
    value {
      b: true
    }
  }
  attr {
    key: "validate_shape"
    value {
      b: true
    }
  }
}
node {
  name: "save/Assign_12"
  op: "Assign"
  input: "agent/batch_apply/convnet/conv_2d_2/b"
  input: "save/RestoreV2:12"
  device: "/job:learner/task:0/device:CPU:*"
  attr {
    key: "T"
    value {
      type: DT_FLOAT
    }
  }
  attr {
    key: "_class"
    value {
      list {
        s: "loc:@agent/batch_apply/convnet/conv_2d_2/b"
      }
    }
  }
  attr {
    key: "_output_shapes"
    value {
      list {
        shape {
          dim {
            size: 32
          }
        }
      }
    }
  }
  attr {
    key: "use_locking"
    value {
      b: true
    }
  }
  attr {
    key: "validate_shape"
    value {
      b: true
    }
  }
}
node {
  name: "save/Assign_13"
  op: "Assign"
  input: "agent/batch_apply/convnet/conv_2d_2/b/RMSProp"
  input: "save/RestoreV2:13"
  device: "/job:learner/task:0/device:CPU:*"
  attr {
    key: "T"
    value {
      type: DT_FLOAT
    }
  }
  attr {
    key: "_class"
    value {
      list {
        s: "loc:@agent/batch_apply/convnet/conv_2d_2/b"
      }
    }
  }
  attr {
    key: "_output_shapes"
    value {
      list {
        shape {
          dim {
            size: 32
          }
        }
      }
    }
  }
  attr {
    key: "use_locking"
    value {
      b: true
    }
  }
  attr {
    key: "validate_shape"
    value {
      b: true
    }
  }
}
node {
  name: "save/Assign_14"
  op: "Assign"
  input: "agent/batch_apply/convnet/conv_2d_2/b/RMSProp_1"
  input: "save/RestoreV2:14"
  device: "/job:learner/task:0/device:CPU:*"
  attr {
    key: "T"
    value {
      type: DT_FLOAT
    }
  }
  attr {
    key: "_class"
    value {
      list {
        s: "loc:@agent/batch_apply/convnet/conv_2d_2/b"
      }
    }
  }
  attr {
    key: "_output_shapes"
    value {
      list {
        shape {
          dim {
            size: 32
          }
        }
      }
    }
  }
  attr {
    key: "use_locking"
    value {
      b: true
    }
  }
  attr {
    key: "validate_shape"
    value {
      b: true
    }
  }
}
node {
  name: "save/Assign_15"
  op: "Assign"
  input: "agent/batch_apply/convnet/conv_2d_2/w"
  input: "save/RestoreV2:15"
  device: "/job:learner/task:0/device:CPU:*"
  attr {
    key: "T"
    value {
      type: DT_FLOAT
    }
  }
  attr {
    key: "_class"
    value {
      list {
        s: "loc:@agent/batch_apply/convnet/conv_2d_2/w"
      }
    }
  }
  attr {
    key: "_output_shapes"
    value {
      list {
        shape {
          dim {
            size: 3
          }
          dim {
            size: 3
          }
          dim {
            size: 32
          }
          dim {
            size: 32
          }
        }
      }
    }
  }
  attr {
    key: "use_locking"
    value {
      b: true
    }
  }
  attr {
    key: "validate_shape"
    value {
      b: true
    }
  }
}
node {
  name: "save/Assign_16"
  op: "Assign"
  input: "agent/batch_apply/convnet/conv_2d_2/w/RMSProp"
  input: "save/RestoreV2:16"
  device: "/job:learner/task:0/device:CPU:*"
  attr {
    key: "T"
    value {
      type: DT_FLOAT
    }
  }
  attr {
    key: "_class"
    value {
      list {
        s: "loc:@agent/batch_apply/convnet/conv_2d_2/w"
      }
    }
  }
  attr {
    key: "_output_shapes"
    value {
      list {
        shape {
          dim {
            size: 3
          }
          dim {
            size: 3
          }
          dim {
            size: 32
          }
          dim {
            size: 32
          }
        }
      }
    }
  }
  attr {
    key: "use_locking"
    value {
      b: true
    }
  }
  attr {
    key: "validate_shape"
    value {
      b: true
    }
  }
}
node {
  name: "save/Assign_17"
  op: "Assign"
  input: "agent/batch_apply/convnet/conv_2d_2/w/RMSProp_1"
  input: "save/RestoreV2:17"
  device: "/job:learner/task:0/device:CPU:*"
  attr {
    key: "T"
    value {
      type: DT_FLOAT
    }
  }
  attr {
    key: "_class"
    value {
      list {
        s: "loc:@agent/batch_apply/convnet/conv_2d_2/w"
      }
    }
  }
  attr {
    key: "_output_shapes"
    value {
      list {
        shape {
          dim {
            size: 3
          }
          dim {
            size: 3
          }
          dim {
            size: 32
          }
          dim {
            size: 32
          }
        }
      }
    }
  }
  attr {
    key: "use_locking"
    value {
      b: true
    }
  }
  attr {
    key: "validate_shape"
    value {
      b: true
    }
  }
}
node {
  name: "save/Assign_18"
  op: "Assign"
  input: "agent/batch_apply/linear/b"
  input: "save/RestoreV2:18"
  device: "/job:learner/task:0/device:CPU:*"
  attr {
    key: "T"
    value {
      type: DT_FLOAT
    }
  }
  attr {
    key: "_class"
    value {
      list {
        s: "loc:@agent/batch_apply/linear/b"
      }
    }
  }
  attr {
    key: "_output_shapes"
    value {
      list {
        shape {
          dim {
            size: 256
          }
        }
      }
    }
  }
  attr {
    key: "use_locking"
    value {
      b: true
    }
  }
  attr {
    key: "validate_shape"
    value {
      b: true
    }
  }
}
node {
  name: "save/Assign_19"
  op: "Assign"
  input: "agent/batch_apply/linear/b/RMSProp"
  input: "save/RestoreV2:19"
  device: "/job:learner/task:0/device:CPU:*"
  attr {
    key: "T"
    value {
      type: DT_FLOAT
    }
  }
  attr {
    key: "_class"
    value {
      list {
        s: "loc:@agent/batch_apply/linear/b"
      }
    }
  }
  attr {
    key: "_output_shapes"
    value {
      list {
        shape {
          dim {
            size: 256
          }
        }
      }
    }
  }
  attr {
    key: "use_locking"
    value {
      b: true
    }
  }
  attr {
    key: "validate_shape"
    value {
      b: true
    }
  }
}
node {
  name: "save/Assign_20"
  op: "Assign"
  input: "agent/batch_apply/linear/b/RMSProp_1"
  input: "save/RestoreV2:20"
  device: "/job:learner/task:0/device:CPU:*"
  attr {
    key: "T"
    value {
      type: DT_FLOAT
    }
  }
  attr {
    key: "_class"
    value {
      list {
        s: "loc:@agent/batch_apply/linear/b"
      }
    }
  }
  attr {
    key: "_output_shapes"
    value {
      list {
        shape {
          dim {
            size: 256
          }
        }
      }
    }
  }
  attr {
    key: "use_locking"
    value {
      b: true
    }
  }
  attr {
    key: "validate_shape"
    value {
      b: true
    }
  }
}
node {
  name: "save/Assign_21"
  op: "Assign"
  input: "agent/batch_apply/linear/w"
  input: "save/RestoreV2:21"
  device: "/job:learner/task:0/device:CPU:*"
  attr {
    key: "T"
    value {
      type: DT_FLOAT
    }
  }
  attr {
    key: "_class"
    value {
      list {
        s: "loc:@agent/batch_apply/linear/w"
      }
    }
  }
  attr {
    key: "_output_shapes"
    value {
      list {
        shape {
          dim {
            size: 3872
          }
          dim {
            size: 256
          }
        }
      }
    }
  }
  attr {
    key: "use_locking"
    value {
      b: true
    }
  }
  attr {
    key: "validate_shape"
    value {
      b: true
    }
  }
}
node {
  name: "save/Assign_22"
  op: "Assign"
  input: "agent/batch_apply/linear/w/RMSProp"
  input: "save/RestoreV2:22"
  device: "/job:learner/task:0/device:CPU:*"
  attr {
    key: "T"
    value {
      type: DT_FLOAT
    }
  }
  attr {
    key: "_class"
    value {
      list {
        s: "loc:@agent/batch_apply/linear/w"
      }
    }
  }
  attr {
    key: "_output_shapes"
    value {
      list {
        shape {
          dim {
            size: 3872
          }
          dim {
            size: 256
          }
        }
      }
    }
  }
  attr {
    key: "use_locking"
    value {
      b: true
    }
  }
  attr {
    key: "validate_shape"
    value {
      b: true
    }
  }
}
node {
  name: "save/Assign_23"
  op: "Assign"
  input: "agent/batch_apply/linear/w/RMSProp_1"
  input: "save/RestoreV2:23"
  device: "/job:learner/task:0/device:CPU:*"
  attr {
    key: "T"
    value {
      type: DT_FLOAT
    }
  }
  attr {
    key: "_class"
    value {
      list {
        s: "loc:@agent/batch_apply/linear/w"
      }
    }
  }
  attr {
    key: "_output_shapes"
    value {
      list {
        shape {
          dim {
            size: 3872
          }
          dim {
            size: 256
          }
        }
      }
    }
  }
  attr {
    key: "use_locking"
    value {
      b: true
    }
  }
  attr {
    key: "validate_shape"
    value {
      b: true
    }
  }
}
node {
  name: "save/Assign_24"
  op: "Assign"
  input: "agent/batch_apply_1/baseline/b"
  input: "save/RestoreV2:24"
  device: "/job:learner/task:0/device:CPU:*"
  attr {
    key: "T"
    value {
      type: DT_FLOAT
    }
  }
  attr {
    key: "_class"
    value {
      list {
        s: "loc:@agent/batch_apply_1/baseline/b"
      }
    }
  }
  attr {
    key: "_output_shapes"
    value {
      list {
        shape {
          dim {
            size: 1
          }
        }
      }
    }
  }
  attr {
    key: "use_locking"
    value {
      b: true
    }
  }
  attr {
    key: "validate_shape"
    value {
      b: true
    }
  }
}
node {
  name: "save/Assign_25"
  op: "Assign"
  input: "agent/batch_apply_1/baseline/b/RMSProp"
  input: "save/RestoreV2:25"
  device: "/job:learner/task:0/device:CPU:*"
  attr {
    key: "T"
    value {
      type: DT_FLOAT
    }
  }
  attr {
    key: "_class"
    value {
      list {
        s: "loc:@agent/batch_apply_1/baseline/b"
      }
    }
  }
  attr {
    key: "_output_shapes"
    value {
      list {
        shape {
          dim {
            size: 1
          }
        }
      }
    }
  }
  attr {
    key: "use_locking"
    value {
      b: true
    }
  }
  attr {
    key: "validate_shape"
    value {
      b: true
    }
  }
}
node {
  name: "save/Assign_26"
  op: "Assign"
  input: "agent/batch_apply_1/baseline/b/RMSProp_1"
  input: "save/RestoreV2:26"
  device: "/job:learner/task:0/device:CPU:*"
  attr {
    key: "T"
    value {
      type: DT_FLOAT
    }
  }
  attr {
    key: "_class"
    value {
      list {
        s: "loc:@agent/batch_apply_1/baseline/b"
      }
    }
  }
  attr {
    key: "_output_shapes"
    value {
      list {
        shape {
          dim {
            size: 1
          }
        }
      }
    }
  }
  attr {
    key: "use_locking"
    value {
      b: true
    }
  }
  attr {
    key: "validate_shape"
    value {
      b: true
    }
  }
}
node {
  name: "save/Assign_27"
  op: "Assign"
  input: "agent/batch_apply_1/baseline/w"
  input: "save/RestoreV2:27"
  device: "/job:learner/task:0/device:CPU:*"
  attr {
    key: "T"
    value {
      type: DT_FLOAT
    }
  }
  attr {
    key: "_class"
    value {
      list {
        s: "loc:@agent/batch_apply_1/baseline/w"
      }
    }
  }
  attr {
    key: "_output_shapes"
    value {
      list {
        shape {
          dim {
            size: 256
          }
          dim {
            size: 1
          }
        }
      }
    }
  }
  attr {
    key: "use_locking"
    value {
      b: true
    }
  }
  attr {
    key: "validate_shape"
    value {
      b: true
    }
  }
}
node {
  name: "save/Assign_28"
  op: "Assign"
  input: "agent/batch_apply_1/baseline/w/RMSProp"
  input: "save/RestoreV2:28"
  device: "/job:learner/task:0/device:CPU:*"
  attr {
    key: "T"
    value {
      type: DT_FLOAT
    }
  }
  attr {
    key: "_class"
    value {
      list {
        s: "loc:@agent/batch_apply_1/baseline/w"
      }
    }
  }
  attr {
    key: "_output_shapes"
    value {
      list {
        shape {
          dim {
            size: 256
          }
          dim {
            size: 1
          }
        }
      }
    }
  }
  attr {
    key: "use_locking"
    value {
      b: true
    }
  }
  attr {
    key: "validate_shape"
    value {
      b: true
    }
  }
}
node {
  name: "save/Assign_29"
  op: "Assign"
  input: "agent/batch_apply_1/baseline/w/RMSProp_1"
  input: "save/RestoreV2:29"
  device: "/job:learner/task:0/device:CPU:*"
  attr {
    key: "T"
    value {
      type: DT_FLOAT
    }
  }
  attr {
    key: "_class"
    value {
      list {
        s: "loc:@agent/batch_apply_1/baseline/w"
      }
    }
  }
  attr {
    key: "_output_shapes"
    value {
      list {
        shape {
          dim {
            size: 256
          }
          dim {
            size: 1
          }
        }
      }
    }
  }
  attr {
    key: "use_locking"
    value {
      b: true
    }
  }
  attr {
    key: "validate_shape"
    value {
      b: true
    }
  }
}
node {
  name: "save/Assign_30"
  op: "Assign"
  input: "agent/batch_apply_1/policy_logits/b"
  input: "save/RestoreV2:30"
  device: "/job:learner/task:0/device:CPU:*"
  attr {
    key: "T"
    value {
      type: DT_FLOAT
    }
  }
  attr {
    key: "_class"
    value {
      list {
        s: "loc:@agent/batch_apply_1/policy_logits/b"
      }
    }
  }
  attr {
    key: "_output_shapes"
    value {
      list {
        shape {
          dim {
            size: 18
          }
        }
      }
    }
  }
  attr {
    key: "use_locking"
    value {
      b: true
    }
  }
  attr {
    key: "validate_shape"
    value {
      b: true
    }
  }
}
node {
  name: "save/Assign_31"
  op: "Assign"
  input: "agent/batch_apply_1/policy_logits/b/RMSProp"
  input: "save/RestoreV2:31"
  device: "/job:learner/task:0/device:CPU:*"
  attr {
    key: "T"
    value {
      type: DT_FLOAT
    }
  }
  attr {
    key: "_class"
    value {
      list {
        s: "loc:@agent/batch_apply_1/policy_logits/b"
      }
    }
  }
  attr {
    key: "_output_shapes"
    value {
      list {
        shape {
          dim {
            size: 18
          }
        }
      }
    }
  }
  attr {
    key: "use_locking"
    value {
      b: true
    }
  }
  attr {
    key: "validate_shape"
    value {
      b: true
    }
  }
}
node {
  name: "save/Assign_32"
  op: "Assign"
  input: "agent/batch_apply_1/policy_logits/b/RMSProp_1"
  input: "save/RestoreV2:32"
  device: "/job:learner/task:0/device:CPU:*"
  attr {
    key: "T"
    value {
      type: DT_FLOAT
    }
  }
  attr {
    key: "_class"
    value {
      list {
        s: "loc:@agent/batch_apply_1/policy_logits/b"
      }
    }
  }
  attr {
    key: "_output_shapes"
    value {
      list {
        shape {
          dim {
            size: 18
          }
        }
      }
    }
  }
  attr {
    key: "use_locking"
    value {
      b: true
    }
  }
  attr {
    key: "validate_shape"
    value {
      b: true
    }
  }
}
node {
  name: "save/Assign_33"
  op: "Assign"
  input: "agent/batch_apply_1/policy_logits/w"
  input: "save/RestoreV2:33"
  device: "/job:learner/task:0/device:CPU:*"
  attr {
    key: "T"
    value {
      type: DT_FLOAT
    }
  }
  attr {
    key: "_class"
    value {
      list {
        s: "loc:@agent/batch_apply_1/policy_logits/w"
      }
    }
  }
  attr {
    key: "_output_shapes"
    value {
      list {
        shape {
          dim {
            size: 256
          }
          dim {
            size: 18
          }
        }
      }
    }
  }
  attr {
    key: "use_locking"
    value {
      b: true
    }
  }
  attr {
    key: "validate_shape"
    value {
      b: true
    }
  }
}
node {
  name: "save/Assign_34"
  op: "Assign"
  input: "agent/batch_apply_1/policy_logits/w/RMSProp"
  input: "save/RestoreV2:34"
  device: "/job:learner/task:0/device:CPU:*"
  attr {
    key: "T"
    value {
      type: DT_FLOAT
    }
  }
  attr {
    key: "_class"
    value {
      list {
        s: "loc:@agent/batch_apply_1/policy_logits/w"
      }
    }
  }
  attr {
    key: "_output_shapes"
    value {
      list {
        shape {
          dim {
            size: 256
          }
          dim {
            size: 18
          }
        }
      }
    }
  }
  attr {
    key: "use_locking"
    value {
      b: true
    }
  }
  attr {
    key: "validate_shape"
    value {
      b: true
    }
  }
}
node {
  name: "save/Assign_35"
  op: "Assign"
  input: "agent/batch_apply_1/policy_logits/w/RMSProp_1"
  input: "save/RestoreV2:35"
  device: "/job:learner/task:0/device:CPU:*"
  attr {
    key: "T"
    value {
      type: DT_FLOAT
    }
  }
  attr {
    key: "_class"
    value {
      list {
        s: "loc:@agent/batch_apply_1/policy_logits/w"
      }
    }
  }
  attr {
    key: "_output_shapes"
    value {
      list {
        shape {
          dim {
            size: 256
          }
          dim {
            size: 18
          }
        }
      }
    }
  }
  attr {
    key: "use_locking"
    value {
      b: true
    }
  }
  attr {
    key: "validate_shape"
    value {
      b: true
    }
  }
}
node {
  name: "save/Assign_36"
  op: "Assign"
  input: "agent/lstm_cell/bias"
  input: "save/RestoreV2:36"
  device: "/job:learner/task:0/device:CPU:*"
  attr {
    key: "T"
    value {
      type: DT_FLOAT
    }
  }
  attr {
    key: "_class"
    value {
      list {
        s: "loc:@agent/lstm_cell/bias"
      }
    }
  }
  attr {
    key: "_output_shapes"
    value {
      list {
        shape {
          dim {
            size: 1024
          }
        }
      }
    }
  }
  attr {
    key: "use_locking"
    value {
      b: true
    }
  }
  attr {
    key: "validate_shape"
    value {
      b: true
    }
  }
}
node {
  name: "save/Assign_37"
  op: "Assign"
  input: "agent/lstm_cell/bias/RMSProp"
  input: "save/RestoreV2:37"
  device: "/job:learner/task:0/device:CPU:*"
  attr {
    key: "T"
    value {
      type: DT_FLOAT
    }
  }
  attr {
    key: "_class"
    value {
      list {
        s: "loc:@agent/lstm_cell/bias"
      }
    }
  }
  attr {
    key: "_output_shapes"
    value {
      list {
        shape {
          dim {
            size: 1024
          }
        }
      }
    }
  }
  attr {
    key: "use_locking"
    value {
      b: true
    }
  }
  attr {
    key: "validate_shape"
    value {
      b: true
    }
  }
}
node {
  name: "save/Assign_38"
  op: "Assign"
  input: "agent/lstm_cell/bias/RMSProp_1"
  input: "save/RestoreV2:38"
  device: "/job:learner/task:0/device:CPU:*"
  attr {
    key: "T"
    value {
      type: DT_FLOAT
    }
  }
  attr {
    key: "_class"
    value {
      list {
        s: "loc:@agent/lstm_cell/bias"
      }
    }
  }
  attr {
    key: "_output_shapes"
    value {
      list {
        shape {
          dim {
            size: 1024
          }
        }
      }
    }
  }
  attr {
    key: "use_locking"
    value {
      b: true
    }
  }
  attr {
    key: "validate_shape"
    value {
      b: true
    }
  }
}
node {
  name: "save/Assign_39"
  op: "Assign"
  input: "agent/lstm_cell/kernel"
  input: "save/RestoreV2:39"
  device: "/job:learner/task:0/device:CPU:*"
  attr {
    key: "T"
    value {
      type: DT_FLOAT
    }
  }
  attr {
    key: "_class"
    value {
      list {
        s: "loc:@agent/lstm_cell/kernel"
      }
    }
  }
  attr {
    key: "_output_shapes"
    value {
      list {
        shape {
          dim {
            size: 531
          }
          dim {
            size: 1024
          }
        }
      }
    }
  }
  attr {
    key: "use_locking"
    value {
      b: true
    }
  }
  attr {
    key: "validate_shape"
    value {
      b: true
    }
  }
}
node {
  name: "save/Assign_40"
  op: "Assign"
  input: "agent/lstm_cell/kernel/RMSProp"
  input: "save/RestoreV2:40"
  device: "/job:learner/task:0/device:CPU:*"
  attr {
    key: "T"
    value {
      type: DT_FLOAT
    }
  }
  attr {
    key: "_class"
    value {
      list {
        s: "loc:@agent/lstm_cell/kernel"
      }
    }
  }
  attr {
    key: "_output_shapes"
    value {
      list {
        shape {
          dim {
            size: 531
          }
          dim {
            size: 1024
          }
        }
      }
    }
  }
  attr {
    key: "use_locking"
    value {
      b: true
    }
  }
  attr {
    key: "validate_shape"
    value {
      b: true
    }
  }
}
node {
  name: "save/Assign_41"
  op: "Assign"
  input: "agent/lstm_cell/kernel/RMSProp_1"
  input: "save/RestoreV2:41"
  device: "/job:learner/task:0/device:CPU:*"
  attr {
    key: "T"
    value {
      type: DT_FLOAT
    }
  }
  attr {
    key: "_class"
    value {
      list {
        s: "loc:@agent/lstm_cell/kernel"
      }
    }
  }
  attr {
    key: "_output_shapes"
    value {
      list {
        shape {
          dim {
            size: 531
          }
          dim {
            size: 1024
          }
        }
      }
    }
  }
  attr {
    key: "use_locking"
    value {
      b: true
    }
  }
  attr {
    key: "validate_shape"
    value {
      b: true
    }
  }
}
node {
  name: "save/Assign_42"
  op: "Assign"
  input: "num_environment_frames"
  input: "save/RestoreV2:42"
  device: "/job:learner/task:0/device:CPU:*"
  attr {
    key: "T"
    value {
      type: DT_INT64
    }
  }
  attr {
    key: "_class"
    value {
      list {
        s: "loc:@num_environment_frames"
      }
    }
  }
  attr {
    key: "_output_shapes"
    value {
      list {
        shape {
        }
      }
    }
  }
  attr {
    key: "use_locking"
    value {
      b: true
    }
  }
  attr {
    key: "validate_shape"
    value {
      b: true
    }
  }
}
node {
  name: "save/restore_shard"
  op: "NoOp"
  input: "^save/Assign"
  input: "^save/Assign_1"
  input: "^save/Assign_10"
  input: "^save/Assign_11"
  input: "^save/Assign_12"
  input: "^save/Assign_13"
  input: "^save/Assign_14"
  input: "^save/Assign_15"
  input: "^save/Assign_16"
  input: "^save/Assign_17"
  input: "^save/Assign_18"
  input: "^save/Assign_19"
  input: "^save/Assign_2"
  input: "^save/Assign_20"
  input: "^save/Assign_21"
  input: "^save/Assign_22"
  input: "^save/Assign_23"
  input: "^save/Assign_24"
  input: "^save/Assign_25"
  input: "^save/Assign_26"
  input: "^save/Assign_27"
  input: "^save/Assign_28"
  input: "^save/Assign_29"
  input: "^save/Assign_3"
  input: "^save/Assign_30"
  input: "^save/Assign_31"
  input: "^save/Assign_32"
  input: "^save/Assign_33"
  input: "^save/Assign_34"
  input: "^save/Assign_35"
  input: "^save/Assign_36"
  input: "^save/Assign_37"
  input: "^save/Assign_38"
  input: "^save/Assign_39"
  input: "^save/Assign_4"
  input: "^save/Assign_40"
  input: "^save/Assign_41"
  input: "^save/Assign_42"
  input: "^save/Assign_5"
  input: "^save/Assign_6"
  input: "^save/Assign_7"
  input: "^save/Assign_8"
  input: "^save/Assign_9"
  device: "/job:learner/task:0/device:CPU:*"
}
node {
  name: "save/restore_all"
  op: "NoOp"
  input: "^save/restore_shard"
  device: "/job:learner/task:0/device:CPU:*"
}
versions {
  producer: 27
}
